env1_ppo.ckpt (torch, 43970 bytes, 11 tensors)

actor.0.weight f4 [64, 9]
000000 18 46 57 3e 3a 58 3d 3e 90 4f 4e be 2c c6 82 3e
       0.21022832 0.18490687 -0.20147538 0.25541818
000010 67 d5 82 bd 6e 76 44 3e bf f7 ff 3c ed 74 3b 3d
       -0.063883595 0.19185802 0.031246064 0.045765806
000020 30 80 8d bd de 28 6a 3e e9 d3 d7 3d a0 51 80 be
       -0.069092155 0.22867152 0.105384655 -0.25062275
000030 ed c1 0c 3e c1 52 e4 bc cf 5d 86 be c5 d6 37 be
       0.13745852 -0.027871491 -0.26243445 -0.17953022
000040 c6 06 e3 bd 2f d5 98 3e 4a 5e 34 bd d4 f7 06 be
       -0.11085276 0.29850146 -0.044035234 -0.13180476
000050 43 f6 98 be eb 6d e3 bd a9 46 15 3e 35 8e ee 3c
       -0.29875383 -0.111049496 0.14577736 0.029120544
000060 84 a5 fa be 3e 7e af 3d 26 be 9f be 0a c5 81 3e
       -0.48954403 0.08569001 -0.3119976 0.2534564
000070 6c 38 49 3d d4 bc 16 bd 76 a9 c9 3e 43 f6 fa bd
       0.049126074 -0.036801174 0.393871 -0.12254002
000080 f5 46 9f 3e 7d 2d 3f 3e af fe 98 3e 5e 26 3c be
       0.31108823 0.18669696 0.29881808 -0.18374011
000090 a4 ea 16 3b a9 c3 75 3e 47 cf 44 be 37 3d 97 3e
       0.002302804 0.2400042 -0.19219695 0.2953889
0000a0 62 1b 16 bd c7 c0 02 3c 15 d2 92 be e0 4e 44 3e
       -0.036647208 0.007980532 -0.28675905 0.19170713
0000b0 0a 6b 8f be 01 cb d5 3d de 99 22 3d 54 fc a1 3c
       -0.28011352 0.104391105 0.03969752 0.01977364
0000c0 70 45 80 3d 0e 8c 94 3e 20 d6 00 3e 94 88 d0 3d
       0.06263244 0.29013103 0.12581682 0.101823
0000d0 e8 7a 70 3e 43 e2 0c be 30 f2 39 3e a3 6d 37 3d
       0.23484385 -0.13758187 0.18158793 0.044782292
0000e0 3b c9 90 bc 2d b8 fb bd 91 8c f5 3d 6f e1 74 be
       -0.01767408 -0.12290988 0.119897015 -0.23914121
0000f0 bb ba 86 be 2d 8d f4 3d 00 78 00 bb f9 1b a8 3e
       -0.2631434 0.1194099 -0.0019602776 0.3283384
000100 22 15 2e 3e 35 06 15 3f 6f e6 02 3e 9b 01 82 bd
       0.17000249 0.58212596 0.12783216 -0.063479625
000110 65 e4 31 be 37 db 61 be cb 1d 0c 3e 23 53 5f be
       -0.17372282 -0.2205628 0.1368324 -0.21809058
000120 6e 23 80 be 51 01 0d 3e 97 01 99 3e 40 89 ee bd
       -0.2502703 0.13770033 0.29884025 -0.11647272
000130 1f b1 be 3d 57 82 5d 3e a4 2a 22 3e 89 80 46 be
       0.09311127 0.21631752 0.15836579 -0.1938497
000140 80 a1 34 3e ab 89 80 3d e5 45 5b be ef 93 c0 3e
       0.17639732 0.06276258 -0.21413381 0.37612864
000150 10 63 da bd be c0 16 be f1 da 8b 3d 78 39 01 3e
       -0.10663426 -0.14721963 0.06828869 0.12619579
000160 95 74 f8 bd e6 15 8f 3d 08 f7 6a be 39 c5 22 bf
       -0.12131611 0.06986599 -0.22945797 -0.6358219
000170 e9 3f 03 3d 06 bb a5 be 54 4d cc 3e e3 24 d7 3d
       0.03204337 -0.3236925 0.39902747 0.105050825
000180 a1 4f 1e bf c5 78 63 be 02 bc 96 3e 74 04 85 be
       -0.61840254 -0.22214039 0.29440314 -0.2597996
000190 63 57 cb be 2f a7 22 3e f1 dc a1 be 4c 75 6a 3e
       -0.39715108 0.15884088 -0.31613877 0.22896308
0001a0 2f fb b2 be 81 1b 02 3e 73 8c 31 3e 28 1f 18 3e
       -0.34957263 0.12705804 0.17338733 0.14855635
0001b0 3f 85 71 bc 85 81 99 3e 9a 6f 4b 3e 7c 36 85 3d
       -0.014741241 0.29981628 0.19866791 0.06504533
0001c0 12 ac 62 be dd a7 98 3e b4 87 ec bd 4c 6b 15 3e
       -0.22135952 0.2981557 -0.11549321 0.14591712
0001d0 be 2c 79 be 93 88 5f 3e 01 c2 1e 3c 14 51 57 3e
       -0.24333474 0.21829443 0.009689809 0.21027023
0001e0 e9 31 26 3d 2e 67 81 3e f9 fb 11 3e c6 dd 84 3e
       0.04057494 0.25274032 0.14256276 0.2595045
0001f0 68 bf 67 3d e8 d6 95 be d4 c3 46 be 74 d6 81 be
       0.056579024 -0.29265523 -0.1941064 -0.25358927
000200 4e e2 bf 3e c4 22 23 3e b4 10 41 bd 61 c4 fa 3d
       0.37477344 0.15931231 -0.04713507 0.122444876
000210 5d 63 3e be 13 70 8d 3e 46 55 65 be ff 82 18 3e
       -0.18592592 0.27624568 -0.2239581 0.14893721
000220 18 94 b1 3e a0 b9 b2 3e 5c e9 ca 3e d5 b6 44 3d
       0.346833 0.34907246 0.39631164 0.048025925
000230 28 0b bd 3e 23 6a b8 3e 5e f0 28 be b2 8a a0 be
       0.36922574 0.36018476 -0.16497943 -0.31355816
000240 3c f2 9a be 0e a7 14 3d 2c 1d c1 3d f1 74 b2 be
       -0.30262935 0.03629213 0.09429392 -0.34854844
000250 a6 04 27 3e b8 05 51 3e c3 c4 05 be 65 99 20 3e
       0.16310367 0.20412338 -0.1306334 0.15683515
000260 7a 22 8c 3e 26 13 6c 3e a1 35 45 bd 19 b3 69 3e
       0.27370054 0.2305418 -0.048146848 0.22822227
000270 d5 e1 c1 3e f6 73 6a be 31 73 a4 bd ff 21 ae 3d
       0.3786761 -0.22895798 -0.080297835 0.08502578
000280 a0 d5 8b 3d db ce f7 bd 83 49 2a 3d d4 a1 dd be
       0.06827855 -0.121000014 0.041574012 -0.43287528
000290 2a 28 e3 bd 95 f9 b5 3a 0a 78 ac 3d 84 05 04 3e
       -0.11091645 0.0013883585 0.08421333 0.12892729
0002a0 8c 97 25 bd 98 ee 8b 3e d6 c4 85 3e ff 68 6f be
       -0.04042773 0.2733047 0.26126736 -0.23379897
0002b0 55 fd 71 3e 25 ff db be b9 49 56 3e b7 5e 4a 3e
       0.23631795 -0.42968097 0.2092656 0.19762693
0002c0 63 e3 6a bd fc ff d3 bd 78 65 6a 3e 50 36 fd 3d
       -0.05734576 -0.103515595 0.2289027 0.12363875
0002d0 39 51 b1 bd e3 f5 ff 3d ab 32 7c be 0c ea df bd
       -0.0865807 0.12498071 -0.24628703 -0.10933313
0002e0 a7 05 07 bc fe b6 66 3d e4 4b 25 3e 79 e0 b6 bc
       -0.008241094 0.05632686 0.16142231 -0.022323834
0002f0 36 52 0e 3d b4 37 89 3e 17 d7 be 3c 9a de 64 be
       0.03474637 0.2680031 0.023295922 -0.22350541
000300 12 0c 46 bd 75 9c a9 bd 3c f0 3e be c7 44 c5 bc
       -0.048351355 -0.08281795 -0.1864633 -0.024080647
000310 eb f6 da 3c 6b ad 0b 3d 58 b4 92 bd 31 99 aa bc
       0.026729068 0.03410093 -0.07163304 -0.020825
000320 5b 86 8f be b9 cc 5d 3e 6e 78 0f be 7a 37 50 3e
       -0.28032193 0.21660127 -0.14010784 0.20333663
000330 d7 1a 19 bd 27 0f a4 3d b8 20 9d 3e 8b c8 ec 3b
       -0.037379112 0.080107026 0.30689025 0.007226055
000340 f4 b6 2e 3e da df 06 bf 5e 5d 80 3d 9a c3 dd 3d
       0.17061979 -0.5268532 0.062678084 0.10828324
000350 52 eb e3 bd c9 9e 64 3e 8c c6 93 be 2b 8a 4e bd
       -0.11128868 0.22326197 -0.28862417 -0.050424736
000360 47 b1 8b 3e c1 32 94 3d da 73 2a bd 3c d5 93 3e
       0.2728369 0.07236243 -0.04161439 0.28873622
000370 37 ba ae be 7a 4a 6b 3d dd f2 63 3e 07 b6 5c 3e
       -0.34126446 0.057444073 0.22260614 0.21553813
000380 9b 84 ee bd c3 e1 94 be b1 17 52 be 52 36 e4 3e
       -0.11646386 -0.29078493 -0.2051685 0.44572693
000390 c1 be f1 be f5 42 74 3e c8 7e 80 3d de 26 62 be
       -0.47215846 0.23853667 0.062741816 -0.22085139
0003a0 79 c8 84 3d a0 5c 69 be be 9d 8f 3d e8 73 5e 3e
       0.064835496 -0.2278924 0.07012509 0.21723902
0003b0 43 07 13 bd c3 d4 89 3e b2 03 96 3e 00 a1 ab be
       -0.035895597 0.26920137 0.29299694 -0.3352127
0003c0 7d f4 8d 3e f6 80 88 3d 56 85 b6 3a 0f 15 60 3e
       0.27725592 0.06665222 0.0013925235 0.21883033
0003d0 b3 44 3d 3e 50 f1 32 3e 77 d5 f6 3e 87 58 08 3e
       0.18483238 0.17474866 0.48209736 0.1331502
0003e0 41 eb 07 3d c6 b5 92 bd 1f f5 0e 3e 5c e6 a9 3e
       0.03318334 -0.07163577 0.13960694 0.33183563
0003f0 02 0f 1a be b4 75 c8 be 99 93 e9 bd 1b e7 3d bf
       -0.15044788 -0.391523 -0.11405105 -0.74180764

actor.0.bias f4 [64]
000000 55 ed d5 3d b1 ab 66 bc bc 4a 2d be 0e 34 6b 3e
       0.10445658 -0.01407902 -0.1692304 0.22969076
000010 7b 35 28 3e f1 e5 82 be 8e 34 a1 3d 1b 79 5a 3e
       0.16426651 -0.25566056 0.07871352 0.2133526
000020 5e 60 e0 3b b1 35 97 3e 92 12 70 be a8 e2 2b be
       0.0068474254 0.2953315 -0.23444584 -0.16785681
000030 9c 1c 9b be bc 0f bb bd 5f ac 4a 3e 49 05 f9 3d
       -0.30295265 -0.091338605 0.19792317 0.12159211
000040 9b 7d b5 be ec dd 7a 3e b1 df 86 bd 68 8b b9 3e
       -0.35447392 0.24498719 -0.065856345 0.3623917
000050 32 ae b6 3e b9 93 40 be bb 0b 4f be 84 89 a6 3e
       0.35679775 -0.18806352 -0.20219319 0.3252679
000060 31 98 52 3d bb 8f 7f be e3 e9 7d be ef c1 66 3d
       0.051414672 -0.24957173 -0.24796252 0.056337293
000070 4c 4c a4 3e 83 8c a3 be d2 7f b7 3e 9e b9 6a be
       0.3208946 -0.3194314 0.35839707 -0.2292237
000080 db e9 34 be 06 a6 40 3b c0 b5 83 3c 52 a2 a4 3d
       -0.17667334 0.0029395833 0.016077876 0.08038773
000090 6b a8 c8 3e 09 7b 83 3e 1b f6 84 3d 57 73 41 be
       0.39190993 0.25679806 0.064922534 -0.18891655
0000a0 33 55 93 3e e0 06 15 3e e9 cf 44 be ca 23 3d be
       0.2877594 0.14553404 -0.19219936 -0.18470684
0000b0 12 a1 ce 3e 4a 01 90 bd 2e cc 9f 3d 7f 9b bc 3e
       0.40357262 -0.07031496 0.07802616 0.36837384
0000c0 14 1f 61 3d 39 8d 2a 3e d1 f3 61 be 29 54 e5 bd
       0.05496128 0.16655435 -0.22065665 -0.11197693
0000d0 eb bb e9 3d f5 1f 6f bc b6 e0 2d 3e 69 62 52 be
       0.11412796 -0.0145950215 0.16980252 -0.20545353
0000e0 d0 2e 81 3e 52 23 4e bd 10 d6 27 3d d9 98 db be
       0.25231028 -0.050326653 0.04097563 -0.4289005
0000f0 df b2 ac 3c 02 9a 8a 3e 50 59 e2 bd 2a e3 1d 3d
       0.021081386 0.27070624 -0.11052191 0.03854672

actor.2.weight f4 [64, 64]
000000 4e 58 af 3d f8 b7 d3 3c e1 3f e6 bd 5a 43 0a 3d
       0.08561765 0.02584456 -0.11242653 0.033755638
000010 56 98 44 3d ff d8 85 3c b9 fb dd bd bd 7d 03 3e
       0.04799684 0.016338823 -0.10839028 0.12840934
000020 89 46 86 3d 99 fa 1e 3e bf 9c ed bd 0f cd e6 3c
       0.06556422 0.15525283 -0.116021626 0.028173951
000030 b8 2b a9 3c 3c c5 d2 3d f5 d5 fd 3b 82 6e 3f bc
       0.02065073 0.10291526 0.007746453 -0.011684062
000040 89 04 e7 bc 88 85 22 3e a0 fb d8 bd 18 0d 7a ba
       -0.028200405 0.1587125 -0.10594869 -0.0009538694
000050 f9 27 94 bd 79 1e 2a bd 4f 39 77 3d df e4 a2 3d
       -0.07234187 -0.041532967 0.060357388 0.0795381
000060 a7 e2 ed 3d 1f f9 fc bd b4 e3 a3 3b 4e 1f 87 bd
       0.11615496 -0.123522036 0.0050015096 -0.06597768
000070 20 d3 f4 bd ff 3b a6 3d b0 12 81 3e 36 05 20 bc
       -0.119543314 0.08116912 0.2520957 -0.009766867
000080 c3 df 12 bc 29 27 33 be f2 95 53 bc 04 e9 01 be
       -0.008964482 -0.17495407 -0.012914168 -0.12686545
000090 9f 95 51 bd 02 75 20 be 25 7f bf 3d 00 53 cd bd
       -0.05116808 -0.15669635 0.09350423 -0.100255966
0000a0 8e 67 be bc 70 5a 9b bd a4 42 d1 bd e6 a4 98 3c
       -0.023242738 -0.07585609 -0.10217789 0.018633317
0000b0 ca 36 b3 3d 55 71 65 3d 5c 4c fe 3b 31 68 d9 3d
       0.087506846 0.056016285 0.0077605676 0.10615576
0000c0 7f 5b 2f 3d da a3 ed bd 3c f4 7c 3b 02 f6 86 3d
       0.042811867 -0.11603518 0.0038597723 0.06589891
0000d0 82 c4 c4 bc 1b 05 1d bc 23 95 c7 3d 1c b6 10 3d
       -0.024019483 -0.009583737 0.097452424 0.035329923
0000e0 71 52 e1 bc 6c e9 db 3c 9f 32 82 bd 3d 58 3a bd
       -0.027505131 0.026844703 -0.063573115 -0.045494307
0000f0 c9 78 cc 3d 76 c0 bf bc d5 58 dc bd 73 4e d4 3c
       0.099839754 -0.023407202 -0.10759131 0.025916314
000100 62 72 94 bc 47 6c be bc 04 3c d6 bb 26 73 8b bd
       -0.018120948 -0.02324499 -0.006537916 -0.06809072
000110 86 48 31 bd bb 53 11 bd d8 7d 4d bc e4 88 22 bc
       -0.043282054 -0.035480242 -0.0125422105 -0.009920333
000120 66 c2 92 3d 72 5c 18 bd 23 6f 83 bd 16 0e c3 bd
       0.07165985 -0.037197538 -0.06417682 -0.09524171
000130 86 a1 a7 bd be d9 dc bd ba 78 6d bd 07 17 ba 3d
       -0.08185105 -0.107837185 -0.057976462 0.09086423
000140 93 64 d3 bd 7b 9b bb 3d 87 b4 d3 3b 85 2a 9a bc
       -0.103219174 0.09160515 0.0064607295 -0.018819103
000150 8c e9 a9 3d 0c 09 8a bd 84 2b 12 3d 80 09 27 3d
       0.08296499 -0.06740007 0.03568603 0.040780544
000160 25 71 af bd f1 b2 43 3d bc c8 ba bc b2 b2 cf 3c
       -0.085665025 0.047778074 -0.022800796 0.025353763
000170 aa e8 86 bc 52 57 a5 bd ee 2b d5 3d 9f 52 ef bd
       -0.016468365 -0.08073296 0.104087695 -0.116856806
000180 31 ad 94 bc 1b 6c a7 3d 5e af 1d 3e 98 1d a1 bd
       -0.01814899 0.08174916 0.15398929 -0.07866973
000190 bf 43 bd 3d 94 c0 9c 3d bb 9b 1d 3e 3d d2 5e bd
       0.09241437 0.07653919 0.15391438 -0.054399718
0001a0 07 97 d2 3d 2e ed ac 3c 1b 10 19 bd 93 4f f8 3d
       0.102827124 0.02110919 -0.037368875 0.121245526
0001b0 10 2f a3 bd f7 32 83 3d 1f 30 f5 bd 33 7e fd 3c
       -0.07967961 0.06406205 -0.11972069 0.030943966
0001c0 c1 51 ec bc b0 39 ed bd b1 5f bb 3d 3e e9 0a 3e
       -0.028847577 -0.11583269 0.09149111 0.13565537
0001d0 3d d2 4e 3c e1 d9 b4 3d e7 9f 8f 3d ad 5a d4 bd
       0.012623367 0.088306196 0.07012921 -0.103688575
0001e0 27 15 91 3b fb 46 02 3e 08 ef cb bd 4d 56 75 bd
       0.0044275704 0.1272239 -0.09957701 -0.059896756
0001f0 c0 54 ad 3d c6 3f 79 3c 48 c5 8b 3d 6e 1a 85 3d
       0.084634304 0.015212959 0.06824738 0.06499182
000200 59 89 80 bd e9 0f d1 bd 49 72 10 bd ba c6 85 bd
       -0.06276197 -0.10208113 -0.03526524 -0.06532045
000210 9c a0 a6 bd 86 fb b9 bd bc ec e6 3d 22 6b 8b 3d
       -0.081361026 -0.090811774 0.11275622 0.06807543
000220 05 a6 c9 3d 35 f6 ec 3d b2 72 ab 3c a9 cb 5a 3d
       0.09846119 0.11570398 0.020928714 0.05341688
000230 63 cf a1 bd 91 04 00 be f1 d7 eb bd d5 b8 0d 3d
       -0.07900884 -0.12501742 -0.11515797 0.034600098
000240 d5 a5 27 3e 5c c4 dd bb eb 55 e3 bd e8 34 d1 bd
       0.16371854 -0.0067677926 -0.11100372 -0.10215169
000250 9b b5 e1 bd 08 84 9b bd b1 23 93 3d 0e d2 83 3b
       -0.110209666 -0.07593542 0.07184542 0.004022843
000260 49 86 d2 bc 41 8d 45 3d 7e 42 0a be da 03 82 3d
       -0.025698798 0.048230413 -0.13501927 0.06348391
000270 09 5b d2 bc d9 50 c5 3d 4f ea e0 bd 4b 83 e6 3d
       -0.025678175 0.09634561 -0.10982191 0.11255511
000280 82 37 3b 3e 6e af 6f bd 7b 4c e7 bd 8d 87 eb 3c
       0.18282893 -0.058516912 -0.11293884 0.02875116
000290 f0 61 16 be 4d fd 57 3d 3a 68 b5 bd fd 03 f1 3d
       -0.14685798 0.0527318 -0.0885777 0.11768339
0002a0 63 02 9a bc 2f e2 f7 bd 58 b4 31 3e e2 a1 d5 3c
       -0.018799966 -0.12103688 0.17353952 0.026078168
0002b0 93 70 86 bd 71 c4 a6 3c fa 8c 07 3e e4 1a 0b be
       -0.065644406 0.020357342 0.13237372 -0.13584477
0002c0 34 d1 b8 bd ac e4 07 3d 4b 13 e1 bc 64 0c 37 bd
       -0.09024277 0.033177063 -0.02747502 -0.04468955
0002d0 d1 e1 d7 bb ad d1 48 bd c4 db 38 bd 49 79 f1 3d
       -0.0065881987 -0.049028087 -0.04513146 0.117907114
0002e0 09 e5 80 bd 81 8b 17 3d df 93 74 39 2c 81 26 bd
       -0.06293685 0.036998276 0.0002332474 -0.04065053
0002f0 41 b2 6a 3d 9e 02 fd bd 99 74 b0 3d b6 e1 2a bd
       0.057298902 -0.12354015 0.08615989 -0.04171916
000300 b1 b9 aa bd ed 96 07 3e 23 cc e6 3d a8 a3 62 bd
       -0.08336199 0.13241167 0.11269405 -0.055331856
000310 73 75 8d 3c 47 76 ae 3d 44 d2 e9 bd a1 72 a3 3d
       0.017267918 0.08518653 -0.11417058 0.07980848
000320 75 0c a4 bd d2 93 3d bd ab 91 e8 bd 22 77 0a be
       -0.080101885 -0.04628355 -0.11355909 -0.13522008
000330 cc a8 99 3c bb 3c 86 3d 17 09 9b bc eb 27 a5 3c
       0.018757246 0.06554552 -0.018925233 0.020160636
000340 c6 5f 0c be 0c 12 06 3e ec 44 be bc d7 83 d0 3d
       -0.1370841 0.13092822 -0.023226224 0.101813965
000350 6b 82 8b 3d 2d ed 02 bd 00 3c 53 3d 84 0a 1f bd
       0.06811985 -0.03196447 0.051570892 -0.038828388
000360 b8 ab a3 bd 8a f7 9e bc 53 5f d1 3d 7d 86 ca bd
       -0.07991737 -0.019405145 0.1022326 -0.09888933
000370 d7 23 98 bd 2f 25 a0 bd 94 03 1a 3e 24 be 48 3d
       -0.07428711 -0.07819592 0.15040427 0.049009457
000380 4c da 01 be a2 7c c6 bd a3 46 53 3d 38 e7 b9 bd
       -0.1268093 -0.096917406 0.051581036 -0.090773046
000390 23 54 83 3d 7e 37 4c bc 98 b0 e5 bb 50 84 e1 3d
       0.06412532 -0.012464402 -0.007009577 0.11011565
0003a0 c5 fc b0 bd 56 c1 b9 bc 57 71 19 3d cc c8 0b 3d
       -0.08641962 -0.022675198 0.037461605 0.03412704
0003b0 db aa cb bc 9d de 23 bd c3 d6 60 bd 64 dc e8 3d
       -0.024861744 -0.040007222 -0.054892313 0.11370161
0003c0 52 3c 45 3d 57 12 df bd ae 9b 8c 3c ec 63 82 bd
       0.04815323 -0.1089217 0.017164078 -0.06366715
0003d0 69 ff 43 3d 00 9d a1 3d 38 be 0d bd 64 6b 54 bd
       0.047851 0.078912735 -0.034605235 -0.05186023
0003e0 8f 62 bf 3d 92 2a 95 bd 16 58 ed bd e6 bf e5 3d
       0.093449704 -0.0728351 -0.11589067 0.11218242
0003f0 09 4f a8 3d bb 29 c4 bb 08 9f 88 bd ef f3 a0 bd
       0.082182 -0.00598642 -0.06670958 -0.07859027

actor.2.bias f4 [64]
000000 45 4e 9e 3c 46 09 73 bb 83 d3 82 3d aa bf 8d 3c
       0.019324431 -0.0037084385 0.06387999 0.017303307
000010 a5 0a 68 bd bf 3f 9e 3d d2 fc 3d bd cb a8 f1 3d
       -0.056650776 0.07727002 -0.046383686 0.11799773
000020 6c 5c 0e bb c0 e2 e5 3c a9 e9 dc bd d1 a6 7e 3d
       -0.0021722568 0.028062224 -0.10786755 0.062170807
000030 6c 5b fb 37 9d e4 e6 bc 97 b4 ca bd cb c9 bb bb
       2.9964103e-05 -0.028185183 -0.09897726 -0.0057308427
000040 e6 20 e4 3d a4 ff b8 bb 1f 15 0a 3e 28 8f 05 bd
       0.111390874 -0.005645709 0.1348462 -0.032607228
000050 ec ff 4b bb 6f 43 a1 3d 70 9c 85 3c 32 6a 4b 3d
       -0.0031127883 0.0787419 0.016309947 0.049661823
000060 5e 7b ba bd 89 60 fe 3d db ae 0d be 16 07 d8 bd
       -0.09105562 0.12420756 -0.13836233 -0.105482265
000070 ef b0 ab bd 16 83 f8 3d aa 94 84 bd bb 01 11 3d
       -0.08383357 0.12134378 -0.06473668 0.03540204
000080 23 8e bb 3d a3 c4 a7 3d 62 d7 5f ba 24 09 c9 bb
       0.0915797 0.08191802 -0.00085388694 -0.006135123
000090 b0 19 74 3d 01 0f ec 3d 17 e5 11 3b 6d 6f 0e bc
       0.05959481 0.11526299 0.0022261792 -0.008693558
0000a0 07 fc 16 3d 36 26 53 bc 99 f0 ab bd b9 1a 0e 3e
       0.036861446 -0.012887528 -0.083955 0.13877381
0000b0 7b d0 b8 3d 7c c9 23 be ee ae 6e 3d da b7 90 bc
       0.090241395 -0.15994829 0.058272295 -0.017665792
0000c0 ca af 70 bd 38 86 02 3d 4f df 93 bd 70 b1 2d bd
       -0.058761396 0.031866282 -0.07220327 -0.042405546
0000d0 12 17 a9 3c 8d f8 91 3d 5c 99 fb 3c 0a 08 09 be
       0.020640884 0.071274854 0.030712776 -0.13381973
0000e0 7c 13 6b bd 7e d4 9f bc eb ae b0 bd ce 84 ab 3d
       -0.05739163 -0.019510504 -0.08627113 0.0837494
0000f0 bc ff 0b bd 2e c1 c3 bd fa 40 5f 3d 5a 54 02 3e
       -0.034179434 -0.095583305 0.054505326 0.1272749

actor.4.weight f4 [3, 64]
000000 52 62 aa 3d 7a b2 af 3d b2 fe 0b be fd 85 48 3d
       0.08319534 0.085789636 -0.13671377 0.048955906
000010 04 cd 16 3e 27 be 73 bd 33 9f 85 3c 0d 69 73 bc
       0.14726645 -0.059507515 0.016311264 -0.014856589
000020 fd 45 19 3e 7b f5 11 3e 55 84 1b be 8f 72 fc 3d
       0.14968105 0.142538 -0.151872 0.12326538
000030 35 7c 62 3d 8f 52 28 bc a0 04 21 bd d5 d9 2a bd
       0.055294234 -0.01027359 -0.03931105 -0.041711647
000040 01 21 c8 bb 95 f3 29 be 89 51 94 3d 7e c8 b1 bd
       -0.00610745 -0.16596825 0.07242114 -0.08680819
000050 ff 6e 90 3d 9a c3 d0 3d 83 ad 4a 3b 2e 85 fd bc
       0.07052421 0.10193558 0.0030926175 -0.030947294
000060 ad c6 2f 3d 45 d8 17 bd f9 e7 3e bd 39 6b f3 3c
       0.04291408 -0.037071485 -0.046607945 0.029714214
000070 5e 54 88 bd bd 20 1a be 3a a0 f0 3d 2f 7b 0d bd
       -0.06656717 -0.15051551 0.11749311 -0.034541305
000080 86 cb 2c 3e 2e f6 7f bd 15 81 7a bc 32 b6 83 bd
       0.16874513 -0.062490635 -0.015289565 -0.064312354
000090 89 d0 b0 bd 25 6f 16 bd 7f f6 79 bd 26 54 f8 3d
       -0.08633525 -0.03672709 -0.061026093 0.12125425
0000a0 a6 78 8f bd 96 da aa bd 65 87 53 3d 67 49 bc 3d
       -0.07005434 -0.08342473 0.051642794 0.09193688
0000b0 35 f7 79 bd bc 4c bd bd 39 84 4a be ad 2f e0 bc
       -0.06102677 -0.092431515 -0.19777001 -0.027366484
0000c0 c5 b1 0c 3e 38 c1 85 bd 8f e0 e6 3d dc 1c 82 bd
       0.13739689 -0.06530994 0.112733 -0.06353161
0000d0 bb 43 7f 3d c1 63 1b bc 1f 1e dd bc fa 27 2e bd
       0.062320452 -0.009484232 -0.026991902 -0.042518593
0000e0 d8 83 90 bd 04 5e 8c bc c8 a4 40 bc 87 4b 41 3d
       -0.07056397 -0.017134674 -0.011758037 0.04719117
0000f0 ec fd 5a bc ca df 6a 3d 78 a1 fb 39 36 ec 3b bd
       -0.013366204 0.057342328 0.00047994754 -0.045879565
000100 f5 88 4e 3d 46 7f 59 3d fb 24 df bd 9a 4d d3 3c
       0.05042358 0.053099893 -0.10895725 0.02579384
000110 13 67 86 bd 4b 53 6c 3c c5 1f 00 3d c4 c1 48 38
       -0.065626286 0.0144241555 0.031280298 4.7864174e-05
000120 d6 13 e3 bc 83 29 0e bd 30 bf a2 3b 3c b4 ac bc
       -0.02771942 -0.034707557 0.004966639 -0.021082036
000130 c1 31 95 3d 9c bb 01 bc 2f 73 48 3c 1e 41 0f bd
       0.072848804 -0.007918265 0.012234493 -0.03497421
000140 34 2d e7 3c b2 cf a9 3c b6 8f fb 3b 65 8e 93 3d
       0.028219797 0.02072892 0.007677044 0.07204894
000150 ae 29 80 3d 1f 54 bf 3d b6 55 ed 3d a4 d6 f4 bc
       0.0625795 0.09342217 0.11588614 -0.029887505
000160 c4 ae 1a 3d a2 ee 39 bd 7e be 15 bb dd 0e 9b 3c
       0.037764326 -0.045393594 -0.0022849138 0.018927986
000170 3a 26 15 bd cc a4 dd bd 6b 22 7f 3d 0a 1a 32 bd
       -0.03641341 -0.10822448 0.062288683 -0.043481864
000180 92 2c 85 3d 4b 9a 42 3c b9 f3 73 3c d0 3a 3d bd
       0.06502642 0.011877607 0.014889651 -0.046198666
000190 1b 56 ea 3b d4 a5 10 bd 26 1f 4f bd f5 10 83 3d
       0.007151378 -0.035314396 -0.050566815 0.06399719
0001a0 a9 6a a2 3c c2 9e 27 bd 63 44 8c 3b f1 5b 20 3d
       0.01982625 -0.040922888 0.0042806133 0.039150182
0001b0 45 f6 4d 3c a7 30 9d 3d c8 00 03 ba 0c 57 91 bc
       0.012570922 0.07675295 -0.000499737 -0.017741702
0001c0 4d c1 b1 bc 08 1c 06 bd 26 21 b4 bc 4e 83 35 bd
       -0.021698618 -0.032741576 -0.021988463 -0.044314675
0001d0 87 99 80 3d 5d 65 1e bc 93 1e 11 3c b5 37 bb bc
       0.06279283 -0.009667722 0.008857387 -0.022853712
0001e0 9a f0 0e bd 6f b3 18 bd 3d 3f d6 bc 0b 93 82 bc
       -0.034897424 -0.037280496 -0.026153201 -0.015939256
0001f0 24 ba 66 3c b3 e3 da 3c 1e 1f c2 3d 70 f8 5b bd
       0.014082465 0.026719904 0.094785914 -0.053703725
000200 e9 f0 2e bd 76 72 1d 3d 65 37 0f 3e 11 0d fe bc
       -0.04271022 0.038439237 0.13985975 -0.03101209
000210 79 01 d9 bc 4a a6 6f 3d 68 0a 5c 3c f4 db 87 bc
       -0.02648996 0.058508195 0.013430215 -0.016584374
000220 e4 9c 7b bd 4b c0 34 bb 3a a2 e1 ba da ed 45 bd
       -0.06142892 -0.0027580436 -0.0017214485 -0.048322536
000230 1a 3f 58 bd 43 7f 28 bc ad fc 14 bc d2 c2 64 bd
       -0.052794553 -0.010284248 -0.009093446 -0.055849858
000240 88 c0 30 3d 43 19 d4 3d 5a d0 bf bd 68 e4 91 bd
       0.043152362 0.10356381 -0.09365912 -0.07123643
000250 8b 05 8c 3d da 4d cc 3d e1 8a 82 3d b5 95 b2 bd
       0.06836995 0.099757865 0.06374145 -0.087199606
000260 a7 83 06 3d ee a6 7d 3d a5 9d e4 3d fa 0e 6c 3c
       0.032840397 0.061926775 0.11162881 0.014407868
000270 30 88 71 bd 86 0b 30 bd 47 e8 98 bd 6f 24 02 bd
       -0.05896777 -0.04297974 -0.074661784 -0.031773027
000280 67 36 21 be e8 1b bb 3d df 4c 43 3d 4f bb aa bc
       -0.15743409 0.09136182 0.047680732 -0.020841269
000290 33 16 14 3e ad 06 78 bd 0e 88 ed 3d 5b ac 7f 3d
       0.14461593 -0.06055324 0.11598216 0.06242023
0002a0 06 cd d2 3d c1 81 23 3d eb 7b cd 3c d5 2e c8 bd
       0.10293011 0.039918665 0.025083503 -0.097745575
0002b0 1a 39 58 3d de 1f 0b 3e 32 3e 07 bd 5b 43 d6 bc
       0.05278883 0.13586375 -0.0330183 -0.026155164
0002c0 bf 2a b6 bc 48 f6 80 bd fc de 76 bd 92 5c 77 bd
       -0.02223718 -0.062969744 -0.06027125 -0.060391016
0002d0 a3 c0 88 3d 48 27 8e bc 8a 35 bc bc db ed 31 bd
       0.066773675 -0.017352715 -0.022974748 -0.043439727
0002e0 8b fe 6b bd 2e 63 dd bd ae aa 8d bb 5f 33 28 bd
       -0.057615798 -0.10809933 -0.004323325 -0.041064616
0002f0 f3 eb 89 3c 1c 7c 9f 3c 23 3a 40 bd f6 b0 a6 bd
       0.016836142 0.01946836 -0.046930443 -0.08139221

actor.4.bias f4 [3]
000000 73 d0 58 3d 95 e5 08 be a8 54 8a bd
       0.052933168 -0.13368829 -0.06754428

critic.0.weight f4 [64, 9]
000000 ba 8c 02 3f 6b ee 10 be fa c9 24 be 4a a2 67 3e
       0.5099598 -0.14153449 -0.16092673 0.22620502
000010 be c8 b4 bd 82 15 a1 be 4d e2 a4 3e 1a fa 39 be
       -0.08827351 -0.31461722 0.32203904 -0.18161812
000020 ab e6 16 3e 42 5d d1 bd bd 51 bb be 3b ae 71 bf
       0.1473643 -0.10222866 -0.365858 -0.9440648
000030 5f b8 6f bf 75 19 f8 3d 87 d3 c5 bd 3b df da be
       -0.936407 0.121142305 -0.09659486 -0.42748436
000040 25 5f 21 3f 00 5c 8a be 55 36 a8 be 30 4a 4d 3d
       0.63035804 -0.27023315 -0.32853952 0.05011958
000050 4c c9 55 be 7b aa ea 3d 6f 8a e6 be 76 8c 5d be
       -0.2087757 0.11458298 -0.4502749 -0.21635613
000060 1f fe 33 3e 1a 5c b5 3e 33 18 8f 3e 01 d7 a6 3e
       0.17577408 0.3542183 0.2794815 0.3258591
000070 34 a9 0b 3e 23 22 01 3e 36 9a 54 3e 84 09 60 be
       0.13638765 0.12610678 0.20761952 -0.2187863
000080 1f c9 97 be cc 8f f9 3d 70 a9 9e be a0 8b 4b 3d
       -0.2964563 0.1218563 -0.30988646 0.049693704
000090 8c 2f ab 3e 9c 09 26 3e c1 94 89 3e 37 f0 0d 3e
       0.33434713 0.16214603 0.26871303 0.13861166
0000a0 c3 84 bc 3e 74 a5 2b 3e ac a7 f5 3c 49 0d 43 be
       0.3682004 0.16762334 0.029987179 -0.19048037
0000b0 5e 82 3d 3e bc 66 c8 bd d9 a4 75 3e a0 9f bf be
       0.18506762 -0.0978522 0.23988666 -0.37426472
0000c0 3c d1 a2 3e 87 3f c4 3e d4 39 38 bc 6e c6 d9 3e
       0.31800258 0.38329718 -0.011244256 0.42534202
0000d0 03 88 56 3e 9b 57 1a be ce 91 48 3d f2 b5 8f be
       0.20950322 -0.15072481 0.048967175 -0.280685
0000e0 33 bd a6 3e 0e 91 cd 3e b7 1c 9d bd 85 5b 18 bd
       0.32566223 0.4014973 -0.076714925 -0.037196655
0000f0 a4 c1 84 be 64 4e 0b 3e 97 d3 83 3e 47 9f 5b bd
       -0.25928986 0.13604122 0.25747368 -0.053618696
000100 99 a5 0e 3f 48 b3 3c 3f 10 19 07 3f 72 c2 5c 3d
       0.5572143 0.7371106 0.5277262 0.053896375
000110 fd 47 a6 3d ef 10 fe 3e 0b 59 c7 be ab 39 61 be
       0.081191994 0.49622294 -0.38935122 -0.21994655
000120 c2 13 d7 bd 9a d6 df 3d 5a 04 4a bf 5e 6f 3c bf
       -0.105018154 0.10929604 -0.7891289 -0.7360743
000130 f0 ff c5 3e 9b 08 07 be 1d 97 f3 bd 45 d6 e5 3d
       0.38671827 -0.13186876 -0.11894057 0.11222509
000140 62 89 a2 3e c7 50 fa 3d a5 23 b6 be b4 d8 08 be
       0.3174544 0.12222438 -0.3557407 -0.13363916
000150 1c 2f ba be 4b 31 2d be af 47 e8 3c a7 78 ad be
       -0.36364067 -0.16913335 0.028354494 -0.33881113
000160 7e 1e 8e 3e 2e 72 64 3e c3 aa 78 3e 3b 9a 3a 3d
       0.2775764 0.22309181 0.2428389 0.045557242
000170 2d 5e db bd a1 73 48 be 01 f6 bf 3e 27 a6 48 3d
       -0.10711322 -0.19575359 0.37492374 0.04898658
000180 b6 5e e3 bd 9c e6 b7 be ab e3 fc 3d 59 c2 08 be
       -0.11102049 -0.35918128 0.12348112 -0.13355388
000190 ae 6c 4f 3e 38 81 05 bf 40 4d b7 bf 4f fe 4f 3e
       0.20256302 -0.521503 -1.432045 0.20311855
0001a0 48 db 4d bc 74 51 82 be 90 1e 71 3e d8 8e 79 be
       -0.012564488 -0.2545277 0.23546815 -0.24370897
0001b0 cf ce 38 3e fc 96 04 bf 55 9e 15 bf 1d 6c 9d 3d
       0.18047641 -0.51792884 -0.5844472 0.076866366
0001c0 9f 88 39 3d 93 58 a1 be e0 3f 02 bf dc c9 6a bd
       0.045296308 -0.3151289 -0.50878716 -0.057321414
0001d0 e3 c9 8e be 31 13 ad 3b 9c 62 ba 3e b7 e4 ec 3e
       -0.27888402 0.005281829 0.36403358 0.46268246
0001e0 f2 68 27 3e e6 a8 a3 b9 34 78 a3 3e 4b ff 5f bd
       0.16348627 -0.00031215622 0.31927645 -0.054686826
0001f0 8f d7 92 3e 0b 46 8f be 16 8a 52 3e e8 fe 00 3f
       0.28680083 -0.27983126 0.20560488 0.50388956
000200 b5 ed a0 3e 59 86 92 3f 97 8f 83 be 82 64 56 3e
       0.31431356 1.144725 -0.25695488 0.20936778
000210 72 d0 ff 3e 2b eb 87 3c f4 a8 9c 3e 35 a2 a4 3c
       0.4996372 0.016591629 0.3059765 0.020096878
000220 67 f0 f3 be c6 a4 0e bf d9 40 49 3b fa 03 03 be
       -0.4764435 -0.55720174 0.0030708818 -0.12794486
000230 8e 66 94 be 13 43 f2 be a3 00 e9 be 50 ab f1 3d
       -0.28984493 -0.473168 -0.45508298 0.118002534
000240 d9 09 be 3e 0f 69 73 bd 6b 21 2e 3f 7f f6 70 3e
       0.37116888 -0.059426364 0.6801974 0.23531531
000250 60 be bf be ee 45 37 3f 9c 4e f8 bd 73 1b ec bd
       -0.37449932 0.7159108 -0.121243685 -0.11528673
000260 6b a5 0c bd 0d ad ad bd d0 85 6b 3f 2f b2 ce bd
       -0.034337442 -0.084802724 0.92001057 -0.100925796
000270 90 c1 32 bf 47 5f 48 be ce 60 cd 3e f8 cd 67 3f
       -0.698266 -0.19567595 0.4011292 0.9054866
000280 e9 6d 03 bf 1f 51 8f be 89 34 f1 bd 0a e8 5c be
       -0.51339585 -0.27991578 -0.117775984 -0.21572891
000290 9b 7a 18 be 49 eb 59 bf 4d 85 af 3e 4e 9d 2f be
       -0.1489052 -0.8512464 0.34281388 -0.1714985
0002a0 5d 5f ef 3d 8b 8f 09 3f 2b f8 c1 3c 3e b9 48 3e
       0.11688111 0.53734654 0.023677906 0.19601914
0002b0 89 e5 af 3e 19 de 28 3e 85 3b 23 3f 41 84 08 3d
       0.3435481 0.16490974 0.63762695 0.033329252
0002c0 f0 34 ea bd f2 eb 1c 3f ec a0 9b be 30 9a b9 bd
       -0.11435878 0.61297524 -0.3039621 -0.09062612
0002d0 57 93 bd be 73 4f 8f 3e b5 9a be be 1c 7a 61 bf
       -0.37026474 0.27990302 -0.37227407 -0.8807695
0002e0 81 b8 44 bd b0 d1 5e be ae d5 3a 3e 52 0e 66 bd
       -0.04802752 -0.21759677 0.18245575 -0.056166
0002f0 a2 f7 88 be bb 89 6d 3e 5a 8d 38 bf 18 fc 07 3e
       -0.2675143 0.23197071 -0.72090685 0.1327976
000300 21 90 fa 3e 3c fc 4d 3d 19 38 be be 2a 54 34 bf
       0.48938087 0.050289378 -0.37152174 -0.70440924
000310 3e e9 8e 3e c6 e5 82 bd 9b a8 97 3e da 61 14 bf
       0.27912325 -0.06391482 0.29620823 -0.5796181
000320 5e 56 2e 3d 6f e7 92 3e 7d 08 7b be c8 7e ae bd
       0.042562835 0.28692195 -0.24514957 -0.08520275
000330 39 a5 1e bf 0f 10 6d 3e 70 75 6f 3e 00 3a 9c be
       -0.6197086 0.23150657 0.23384643 -0.30513
000340 05 bc bf be 9a 2a d1 be 0d 01 85 bf 53 b5 c8 3e
       -0.37448135 -0.40852815 -1.0390946 0.3920084
000350 9b 39 2f be 9b f5 aa be d5 c9 db bd 6e ed 02 3e
       -0.17111818 -0.33390507 -0.10731856 0.12785885
000360 2f 98 84 be 69 f2 2d bd dd a7 d5 3c c3 a6 84 be
       -0.25897357 -0.04246751 0.02608102 -0.2590848
000370 19 92 d7 be 71 a9 ab bd 3e 0e cc 3d e5 79 8a 3e
       -0.4210365 -0.08381928 0.09963654 0.27046123
000380 56 74 62 bd 24 9b 49 3e 35 97 31 be bf 79 35 3e
       -0.055286728 0.19688088 -0.17342837 0.17722224
000390 de 39 1d be 65 db 95 be c5 9b 44 be 11 6c 7e be
       -0.15354106 -0.29268947 -0.19200046 -0.24845912
0003a0 4c 92 b0 be e2 fc 96 3e c2 07 c1 be 9e ae 80 3d
       -0.34486616 0.2948981 -0.3770123 0.062833056
0003b0 e4 bc 23 bf ec ed 53 bf 38 85 ab 3e 74 a7 35 bf
       -0.639601 -0.82784915 0.33500075 -0.7095864
0003c0 67 65 8d 3d dd e9 b2 bd a0 91 ee bd 43 6a 3c 3e
       0.069041066 -0.08736012 -0.116488695 0.1839991
0003d0 fd 9b 89 3e 8e b5 ef 3d c1 9e 9c 3f a7 d6 a7 be
       0.26876822 0.11704551 1.2235948 -0.32780954
0003e0 35 ed 5c 3e 41 b6 94 be 0c 6b 71 3e 53 9d 7d be
       0.21574862 -0.290453 0.23575991 -0.24767046
0003f0 83 06 ab 3d 65 1d be bc c0 c7 c5 3b 99 a5 45 be
       0.083508514 -0.023207376 0.006035775 -0.19301452

critic.0.bias f4 [64]
000000 19 bd 3d bd 36 19 91 be 26 a4 f9 be 9a 8b 71 3d
       -0.046322916 -0.28339547 -0.48758048 0.058971025
000010 d5 1e ec 3e cc 34 10 3d f6 54 72 3e b2 83 fb 3d
       0.46117273 0.0352066 0.23665223 0.12280978
000020 db 59 0e bf 74 5b 7c be a7 93 f8 3d 7e aa 04 be
       -0.5560586 -0.24644262 0.121375374 -0.12955663
000030 47 7b e2 3d 1e 33 25 bf f9 e9 f3 3e 8f 81 e4 3e
       0.110586695 -0.64531124 0.47639444 0.44630095
000040 cb 25 17 3e 1e a4 0d 3f 52 f9 d1 be 0c 87 c7 bc
       0.1476051 0.5532855 -0.4101053 -0.024356388
000050 94 89 8c bd 27 d2 f2 3d 7d 63 3d 3b b2 f2 71 be
       -0.068621784 0.1185649 0.002889841 -0.23627737
000060 d0 96 01 bf 31 a6 e3 bd d6 7b 41 be 46 37 41 be
       -0.50620747 -0.11115683 -0.18894896 -0.18868741
000070 9b 0e f1 be a5 1c a3 3e d1 e7 2d bd 4d da 0f be
       -0.47081456 0.31857792 -0.042457405 -0.14048119
000080 72 0f 43 3f d3 24 13 3d 32 06 9e be 5b b5 4d bd
       0.7619544 0.03592379 -0.30864102 -0.050221782
000090 ca 87 e2 3d 60 64 03 bf 8b 54 8d 3d cc 76 65 3d
       0.11061056 -0.51325035 0.06900891 0.056021497
0000a0 e3 ab 1e 3e 3a a1 20 3e 96 e7 a7 3e d9 64 ed be
       0.15495257 0.15686503 0.32793874 -0.46366003
0000b0 da 69 91 be 0d 9d fa bd 15 8c b2 be f9 ce e9 bd
       -0.2840107 -0.12236986 -0.348725 -0.1141643
0000c0 41 99 9d 3d 23 d8 a7 bd 9f 37 15 be bd d3 84 3e
       0.076952465 -0.08195522 -0.14571999 0.25942793
0000d0 2e 69 31 be 2b fb 03 bf e8 99 f1 bd 00 9e 95 3d
       -0.17325279 -0.51555127 -0.117969334 0.07305527
0000e0 50 ba c2 be 7d 3b 8b be 0e 55 65 bd 21 35 10 3e
       -0.3803277 -0.27193823 -0.055989318 0.14082767
0000f0 7c 2e 36 3d 53 8c af bd e5 98 05 3f 4f 4d a5 3d
       0.044477925 -0.085716866 0.52186424 0.08071386

critic.2.weight f4 [64, 64]
000000 92 9e 25 bd 56 8c a2 3e ec 04 0f 3d f2 7b 24 3e
       -0.040434428 0.31747693 0.034916803 0.16062906
000010 e9 f5 30 3d 28 7c b7 bd 69 46 f4 bb 8c 77 6c be
       0.04320327 -0.08959228 -0.0074546826 -0.23092479
000020 e0 65 ba bd b6 0c 1b 3e 7a ca 74 bd 04 1d 86 bd
       -0.09101462 0.15141568 -0.05976341 -0.06548503
000030 ff 04 2a 3e af ed a1 be 66 b2 a3 be bf 41 c2 3e
       0.16603468 -0.3162665 -0.31972045 0.37940785
000040 b4 e7 19 3b 07 2e f5 be 34 04 63 bd e8 2f 8d be
       0.0023484053 -0.4788668 -0.05542393 -0.27575612
000050 93 90 6a 3d a2 79 a9 3e 8a 4e a4 3e 61 16 0c 3f
       0.057266783 0.3310061 0.3209117 0.5472165
000060 a9 0e 31 bd f1 6f f7 3d 83 7e 1b 3e 8d 50 1f 3d
       -0.04322687 0.12081898 0.15184979 0.03889518
000070 d2 15 81 3d 72 c9 41 3e c6 0f aa 3d ca c1 c5 3d
       0.0630299 0.18924502 0.0830379 0.09656103
000080 b6 bd ac 3d 30 c0 8b be 1b 2a 3e 3e c4 6a 36 bd
       0.08434622 -0.27295065 0.1857075 -0.044535413
000090 cf 49 66 bd 59 6b cb 3e ea 42 5f 3e c8 64 98 be
       -0.056222733 0.39730337 0.2180287 -0.2976439
0000a0 2a 77 25 bd 22 d1 13 bc f8 86 8d bd eb f8 26 be
       -0.040396847 -0.009022029 -0.06910509 -0.16305892
0000b0 16 25 2b bd 27 4a 3e 3e 2e 67 01 be 0e 45 aa 3d
       -0.041783415 0.18582974 -0.12637016 0.083139524
0000c0 13 0e 96 bd a1 a1 1e 3e f0 c2 cd be 80 5f e1 3d
       -0.07326903 0.15491344 -0.40187788 0.11004543
0000d0 07 36 6d be 81 86 0d 3f a6 9f 83 bc e0 30 13 bd
       -0.23165141 0.5528336 -0.016067337 -0.035935283
0000e0 d8 a0 31 be 94 b6 f9 3c 98 0e f0 bd 2a f2 b0 bc
       -0.17346513 0.030482568 -0.117215335 -0.021599848
0000f0 27 66 06 3d 6c 49 dc bd 15 3e 05 3e d1 22 0d bd
       0.032812264 -0.107561916 0.13011964 -0.03445703
000100 57 47 13 3e 91 b0 50 3d a3 73 64 3d 1a 97 40 3e
       0.14382683 0.050949637 0.055774342 0.1880764
000110 06 44 01 3d 0b 6c 60 3d 14 97 11 3d 62 11 98 bd
       0.031559013 0.054790538 0.03554447 -0.074251905
000120 5f 58 2a be 45 b8 f7 3c 7a 44 bd bd 9d e5 e3 be
       -0.16635273 0.030239234 -0.092415765 -0.4451112
000130 21 84 3b 3e c3 25 5a be 4f e4 5c 3e cf 8e d0 3c
       0.18312122 -0.21303467 0.21571468 0.025458721
000140 0a 91 c5 bd 7f e5 b7 be f0 39 0a bf 0a d8 eb 3d
       -0.09646805 -0.3591728 -0.53994656 0.115158156
000150 b0 ed 11 3d 12 d4 83 3e 20 57 05 3e 54 06 29 be
       0.035627067 0.25747734 0.13021517 -0.1650632
000160 f6 fb 60 bd 16 3e 6b bc 03 81 40 3d 07 36 de 3d
       -0.05492779 -0.014358064 0.046998035 0.10850149
000170 88 a5 09 be 48 8f 6c 3d d8 03 92 3d 5a e6 32 be
       -0.13442051 0.05775383 0.071296394 -0.17470685
000180 a0 99 c6 3d 7f 0f cb bc 86 7a 0e bf 7b 70 60 3c
       0.096972704 -0.024787663 -0.55655706 0.013698692
000190 0e f6 fd 3e d7 18 7a 3e 1f a4 ac 3c ad e7 e3 bd
       0.49601787 0.24423538 0.021074353 -0.11128173
0001a0 fb ba 42 3e 26 ed 37 3d f2 b1 20 3e ee 10 bd bd
       0.1901664 0.044903897 0.15692881 -0.09231745
0001b0 20 ad d4 3d be 59 f7 bc 49 00 4d bd 56 23 6d 3c
       0.103845835 -0.03019416 -0.0500491 0.014473757
0001c0 cb da b2 3d d3 c4 4f bf 7f 1c 07 3e 8e 1a fc 3d
       0.08733138 -0.81159705 0.13194464 0.123097524
0001d0 ba 80 b8 3d 7f e3 a4 3e 35 bd 22 3d 6a 34 12 3e
       0.09008928 0.32204816 0.039731223 0.14277807
0001e0 c7 c6 39 bd 5c 4c 2d bd 44 32 97 3e 46 2e 82 bc
       -0.045355584 -0.04230915 0.29530537 -0.015891206
0001f0 6a fe cb 3e 47 b0 17 be 55 99 50 3b 75 58 33 3e
       0.3984254 -0.14813338 0.0031829674 0.17514212
000200 2d 85 8a bd cf f4 ad bd 3a 21 f0 3d d4 99 5f 3d
       -0.067636825 -0.08493959 0.117250875 0.05459006
000210 d4 11 94 bd 5c 30 53 3e 29 ef 31 bd d4 8f e1 bd
       -0.07229963 0.20623916 -0.04344097 -0.11013761
000220 9d c2 92 bc 0a b5 11 be 0a 9c 44 bb 65 2a 98 bd
       -0.017915064 -0.14229217 -0.0030000233 -0.07429961
000230 74 53 0b 3e 67 31 16 3e 1f c0 d1 3d 55 43 08 3d
       0.13606054 0.14667283 0.10241722 0.033267338
000240 1b 31 43 3d 1c b7 9e be 3a b4 78 be 04 91 6a 3d
       0.047654252 -0.30999076 -0.24287501 0.057267204
000250 41 94 04 3e 99 53 20 3d 94 f4 26 3e 0c 4a e6 bd
       0.1294718 0.039142225 0.16304237 -0.11244592
000260 e3 39 da 3c 43 f1 36 be 88 c7 15 3e 63 8f 97 3c
       0.02663893 -0.17865472 0.14626896 0.01850099
000270 eb 52 23 3d 40 cd 9a 3d 5b fa b1 3d 8a ca 42 3d
       0.039874 0.075586796 0.0869033 0.047556438
000280 f0 fe 41 bd 37 c4 0d 3c 88 70 11 3d 05 f6 d8 3d
       -0.047362268 0.008652738 0.03550771 0.105937995
000290 38 6b fe 3d eb 7c 04 3d 4e ff 9e bd ab 9c e5 bc
       0.12422794 0.032345694 -0.07763539 -0.028028807
0002a0 3f 3d f0 3d 9c c1 be 3c a6 63 76 bb c4 d8 d8 bd
       0.11730432 0.02328568 -0.0037596016 -0.1058822
0002b0 9a 94 64 bd 33 a4 63 3d f9 bc c1 bd 3a 35 d4 bd
       -0.05580578 0.055576514 -0.09459872 -0.10361715
0002c0 56 93 8b bb 8d f6 0b be 35 5d b7 3d 69 6a d7 bd
       -0.004259507 -0.1366827 0.08953325 -0.10518343
0002d0 36 2f 11 bc f1 68 a0 3d 9d df e3 3b 4a 7b 64 3b
       -0.008861354 0.07832516 0.006954147 0.0034863525
0002e0 0a ac aa 3d 3f 0a fb bd db e7 10 3d 62 b7 70 bd
       0.08333595 -0.12257814 0.035377365 -0.058768637
0002f0 29 69 49 3e dc 36 76 bd 8a 7e d2 bd 68 42 b8 3d
       0.19669022 -0.06011091 -0.10278042 0.08997041
000300 77 71 02 3e 46 25 8e 3e 09 b1 1b be 1c 91 48 3e
       0.12738596 0.27762812 -0.15204252 0.19586605
000310 51 de 0f 3e 9c d8 fb bc 6c e7 38 3b 86 07 05 be
       0.1404965 -0.030742936 0.002821411 -0.12991151
000320 aa ec ad bd d5 e3 1f 3e 98 15 86 bd a6 77 3d 3e
       -0.08492406 0.15614255 -0.065470874 0.18502674
000330 68 2a a0 3d c4 74 37 be 50 4f 40 be d1 77 00 3e
       0.07820588 -0.17915636 -0.18780255 0.12545706
000340 c2 a8 b4 bc 72 26 8f be 5f 45 cf 3d 98 8c 91 be
       -0.022053126 -0.2795902 0.10120653 -0.28427577
000350 5c 10 af 3d c2 ea 62 3e 02 3e 72 3e 94 9c 79 3e
       0.08548042 0.22159865 0.23656467 0.24376136
000360 a4 d5 75 3d 16 31 55 3e ae d9 90 bd 37 58 38 bd
       0.060018197 0.20819506 -0.07072769 -0.045006003
000370 e7 f1 79 bd 9e c2 14 3e dc 6e 20 3d 0d 84 18 3e
       -0.06102171 0.14527366 0.039168224 0.14894123
000380 a2 9e b3 3d fe 2b 4d bd 0e b3 74 3e 39 e9 8e bd
       0.08770491 -0.050090782 0.23896429 -0.069780774
000390 60 94 0b be 0a 28 56 3e d7 48 2e 3e 7a 52 45 be
       -0.1363082 0.20913711 0.17019974 -0.19269744
0003a0 69 72 95 3d 79 f1 c6 39 b6 fc ce 3d 91 90 64 3d
       0.07297213 0.00037945414 0.101067945 0.05580193
0003b0 22 4b f3 bd 8e 2a 94 3e f4 92 01 be 8d 13 21 3e
       -0.11879565 0.28938717 -0.12653714 0.15730114
0003c0 3b a6 01 be bd 4f dc 3d f2 1b 68 be fc a4 4a bd
       -0.12661068 0.10757396 -0.2266691 -0.049473748
0003d0 29 46 3b be 42 ea ab 3e 8d 1f 11 3d fe 80 cc 3d
       -0.18288483 0.33577162 0.03543048 0.09985541
0003e0 ba 11 f5 bd 61 78 b8 3d c1 a6 3e be cc 19 c8 3c
       -0.11966272 0.090073355 -0.18618299 0.024426363
0003f0 98 52 39 3d 70 c8 ee 3b fc b7 47 3e 3a 2c 0c 3e
       0.045244783 0.0072870776 0.19503778 0.13688746

critic.2.bias f4 [64]
000000 8c 5c a3 bc 2b 44 01 3e 93 dd e8 bd d1 4e 84 bc
       -0.01994159 0.1262366 -0.11370387 -0.016150864
000010 1c 3e 97 3d c6 42 aa bd d0 f0 ad bd 5c b2 13 3e
       0.07384893 -0.08313517 -0.08493197 0.14423507
000020 ff 5e 37 bb 75 d3 16 be 3b 03 34 3d ef 00 47 3e
       -0.0027980206 -0.14729102 0.043948393 0.1943395
000030 71 4d 10 bc 4c e0 b6 bd 0f 4d 9f bd b7 54 0b 3d
       -0.008807526 -0.089295 -0.0777837 0.034016337
000040 8f a6 e3 3d 8d 84 35 be 80 ac c4 3d 57 d9 06 bd
       0.11115753 -0.17726345 0.09603214 -0.032922115
000050 79 1c 7d bd af b1 39 be 14 25 be bd 57 2a f5 3c
       -0.06179473 -0.18134187 -0.09284416 0.029927416
000060 3f 9f f7 bc 0f ac f5 3d bc 5a 71 3d 84 ed db bd
       -0.030227302 0.11995708 0.05892442 -0.10738662
000070 e4 6f 3d be 76 68 29 3e 77 65 f3 3c 8e 38 29 bc
       -0.18499714 0.16543755 0.029711468 -0.010328425
000080 0a 28 6f be 7a d8 31 3d e5 30 6b bc 42 96 99 bc
       -0.23355117 0.04341934 -0.014354919 -0.018748406
000090 82 4c 18 3e 24 71 ec 3d 8c 1b 19 bd 87 72 45 3e
       0.14872935 0.11545017 -0.037379786 0.1928197
0000a0 57 d1 26 3e 50 25 37 3d 5e 49 1a bc e9 5c 18 3c
       0.16290794 0.04471332 -0.009416906 0.009299495
0000b0 e8 23 57 3d b0 97 2c bd 6a 2d 7a bc bd 3a c8 bd
       0.052524477 -0.042136848 -0.015269617 -0.097768284
0000c0 d8 94 2d 3e f0 e0 1f bc f3 e8 36 be b3 5c 4e 3d
       0.1695131 -0.009758219 -0.178623 0.050381374
0000d0 6b 43 0f 3e 2a 9f bf bd ea 7e 11 bd d3 67 86 3d
       0.13990562 -0.0935653 -0.035521425 0.06562772
0000e0 6d e0 1a 3e 82 75 ab bb 37 d0 91 be b4 ad 1f 3e
       0.15124674 -0.005232514 -0.28479168 0.15593606
0000f0 ef b6 03 3e 13 86 a1 3d 50 2a 40 3d 1c 20 c8 3d
       0.12862752 0.07886901 0.046915352 0.097717494

critic.4.weight f4 [1, 64]
000000 5d 36 59 be 97 5f 16 3e 9e 36 f0 3b f1 86 ba bd
       -0.21212144 0.14684902 0.0073307296 -0.09107769
000010 a2 04 04 3e 33 03 01 3e 58 3d 81 bb 95 78 58 be
       0.12892392 0.12598877 -0.0039440803 -0.21139748
000020 ec 25 92 bd 92 dd 58 3e 04 3d 8c 3b 84 9e 22 3d
       -0.07136139 0.21178272 0.0042797346 0.039701954
000030 b7 04 bd bb 43 26 83 3c b5 da 81 ba 7a 5e 21 3e
       -0.0057683843 0.016009456 -0.0009907099 0.15758696
000040 8d 92 1d 3e 1f e3 11 3e 41 a1 38 be f3 5e e7 3b
       0.15387936 0.14246796 -0.18030263 0.0070608794
000050 3d ec 40 3e 69 6d 16 bd c4 98 87 bb c8 78 f0 3d
       0.18840118 -0.036725435 -0.004138084 0.11741787
000060 68 15 72 3d 91 19 6c bb 5f 0c 9f bd 50 34 02 be
       0.059102446 -0.003602598 -0.077660315 -0.12715268
000070 6b 97 13 be c8 29 16 be 2a 01 3c 3e 86 0c 1a bb
       -0.1441323 -0.14664376 0.18359819 -0.0023506
000080 bb 88 a5 3d d8 e9 c7 bd e5 0f 1e be 3a a7 d5 bd
       0.0808272 -0.09761399 -0.15435751 -0.104322866
000090 71 bf 7b be 01 65 16 ba 8f 99 79 3e ed c1 60 bd
       -0.24584748 -0.00057370967 0.24374984 -0.054872442
0000a0 ef eb c4 be a5 27 6a 3e 95 b2 d9 ba 65 fc 93 3b
       -0.38461253 0.22866686 -0.0016609008 0.0045161718
0000b0 29 25 fa 3d 21 c3 0e 3b 3b 87 f8 bb 67 8f 4c 3d
       0.12214119 0.0021783786 -0.00758448 0.049941447
0000c0 49 24 12 3e 9d 6b 81 bb fe 06 20 3d 5d bc 09 be
       0.14271654 -0.003949596 0.03906917 -0.13450761
0000d0 9a 74 e9 3d 0a 6c 44 3e b0 1f a7 3d 02 df 87 3b
       0.11399193 0.19181839 0.08160341 0.0041464576
0000e0 84 61 01 bd e2 97 28 bd ab 83 84 3e f0 91 8e be
       -0.03158714 -0.04116047 0.25881705 -0.27845716
0000f0 88 7f 8b bb 94 25 9a bb 06 b7 0b 3b 38 9a 82 bd
       -0.0042571463 -0.0047041867 0.0021318807 -0.06377071
