env1_gail_disc.ckpt (torch, 146062 bytes, 5 tensors)

hidden1.weight f4 [256, 10]
00000000: 5a7c ffbc 5064 2cbe d105 d1bd 148c 0841
00000010: f3f6 59bd 07b8 113e 2ace 0dbe 3194 383c
00000020: 344d a1be 682d 393e 9888 04bf b997 b13e
00000030: 2402 18c0 14cb 02c0 b425 a93d f86d 873e
00000040: 0721 ecbd 50cf ebbe 6ad8 00bd 3f7f 3a3d
00000050: 91ef 343c f585 44bd c98c c33e a35b 8a40
00000060: eab8 94bd d138 e33d 1676 313e e3a3 7e3d
00000070: fe50 693e 351d 42be 4d72 673d d536 38be
00000080: 3ef2 0a3f 92e1 da40 df91 94bb 47a0 f23d
00000090: 24f9 b9be c3d6 573e 99ad ccbd 156a ce3d
000000a0: 695b c23d 5eae 813e aeab 63be 9edd e8c0
000000b0: cb80 a1bd acf4 78bc ed30 0c3e 8dd1 313e
000000c0: f2ed 1b3e 53a9 9f3c f9a7 e43d 943f 673e
000000d0: e1dd 7ebe e35d b2c0 e789 98be 8c52 f9be
000000e0: d818 b83e 7650 0e3e 528c 1b3e 80be 2a3d
000000f0: feb4 c53e c2c6 71be 8e34 28bf 5d31 97c0
00000100: 8052 ba3e c576 663e 16ec 34be b79f 3dbe
00000110: 4697 8b3e 59d3 3b3d 3e1d 12bf 3884 b4bf
00000120: 3743 843e 1418 8c3e e10f 58be 7f07 8a3d
00000130: 2c92 eebf ec28 123f 2a18 8d3e 282b ac3c
00000140: 4f49 073e 56c1 413f 7e08 1cbf 82f9 e0c0
00000150: 900e be3e ae93 c13e 3eef 3d3f 9c93 d6bd
00000160: 13a5 0bbc 0e44 cbbd 5fc0 5dbd 5002 86be
00000170: c902 92be 3e2a abc0 d1bf b5bc 27ef 7c3d
00000180: 6219 fdbc ecc3 c7bd 55b1 e63d 2435 a1be
00000190: f7f4 503d 1b39 a93d 02df 133f c6ec b0be
000001a0: 2112 ea3e ebd5 02bd a7c1 c83e b5d3 27bf
000001b0: 17e0 943e ad1f fa3d 5930 0f3e a27b ef3e
000001c0: ae17 0cbf 6187 02c1 00db 653e 9e43 2d3e
000001d0: 14aa 133f 1766 8bbd 08d4 483e 5af8 f9bc
000001e0: e3ad a13e 0727 063f ba20 1cbe 338d cec0
000001f0: 8f73 8ebe 70fd 39be 9e4e 1e3f 02a8 64be
00000200: c32a 4dbe fa44 153e 7a6a 5f3e 0f74 d53e
00000210: 2918 5abf b9b0 08c1 ea7e 373e ef62 3f3e
00000220: 94dc 333f 52ac fb3d accd a53b 50a6 cebd
00000230: 6aba 46be 5cf4 46bf ef35 b73e 4a21 f840
00000240: a15c 32be ad95 78be 6f08 f5be 8385 8cbe
00000250: c75c 48be 2c55 6d3d ac4c 62be 8311 da3e
00000260: 39e8 64be c67c cc3f f95d 013f 5b37 40be
00000270: a9ff 3a3f 3d24 dbbe d693 ebbd 9f19 bbbd
00000280: c698 17bf 5a05 8abf 20f5 08bf 0bb0 30c0
00000290: ab9b 99be a45a aebe 14e5 94bf 8b5f fd3e
000002a0: 4e41 25bd c623 0b3d 4498 353e 4386 f23d
000002b0: 2515 13be a42e d040 5758 b8bd 8035 403d
000002c0: c291 5cbe 6205 113e 1d26 123e bb3f bebe
000002d0: 8610 853e d476 0c3e 631c 1ebf 883f 90c0
000002e0: 28e5 d53d a065 903e 3f69 e0bd 93ab 4fbe
000002f0: 7d73 ccbc de21 9c3e dd35 cf3d b723 90bc
00000300: 407f afbe 09cc f2c0 e440 24bd 13ae 55bb
00000310: 866a 703d 7382 b23b 8694 2abe aa30 d1bd
00000320: 1629 bf3d 34e5 c5be 0f9b cf3e 9bec cd40
00000330: e9a6 e5be 7178 21be 9a46 e2be a25a eb3e
00000340: 9bf3 96bd 24c5 593d c634 7ebe 3b58 4e3f
00000350: 467e 9abf d098 50bf 124b 99be df13 af3e
00000360: 6d1a 193f 73b0 3a3f 7601 373e 2e0b b9be
00000370: ee71 453c a605 9c3e 5f15 4fbf b215 e4c0
00000380: 5a81 773e 0d83 4d3c eb63 483d e76e 99be
00000390: 02fc 103e d6d8 81be a029 d4bd 1044 ea3d
000003a0: a9ce 403d a0d2 c740 39a2 a1bd c058 fa3d
000003b0: 3269 d4bd 3afa f53e 129a 8b3e 9ec2 9dbd
000003c0: 9f07 17be c4c9 203e 7653 403e 1051 b33f
000003d0: b672 c63e 0761 143f 235c 1e3f a7fb 81bd
000003e0: bdd7 963d a4ed 74be efb9 2c3d f022 643c
000003f0: b2ff dbbe cba2 00c1 5d76 e33d b71a 40be
-0.031187225 -0.16835141 -0.102061875 8.534199 -0.053214025 0.14230357 -0.13848177 0.0112658
-0.31504214 0.18083727 -0.51770926 0.34686068 -2.3751307 -2.043645 0.082591444 0.26451087
-0.11529737 -0.46056604 -0.03145639 0.045531508 0.011043445 -0.047979314 0.38193348 4.323686
-0.07261832 0.11094821 0.17330202 0.062168013 0.22784802 -0.18956454 0.05650549 -0.17989667
0.5427588 6.8400354 -0.0045339908 0.11846977 -0.36322892 0.21078019 -0.099940486 0.10078827
0.09490091 0.25328344 -0.2223346 -7.277053 -0.078858934 -0.015195053 0.13690539 0.17365094
0.15227488 0.01948992 0.11164851 0.22582847 -0.24889328 -5.573961 -0.2979271 -0.4869579
0.35956454 0.13897881 0.15190247 0.04168558 0.3861465 -0.23610976 -0.6570519 -4.724776
0.36391068 0.22506244 -0.17668185 -0.18517958 0.2726385 0.045855854 -0.5707587 -1.410285
0.2583253 0.2736212 -0.21099807 0.06739711 -1.8638358 0.5709369 0.27557498 0.021016672
0.13211559 0.7568563 -0.6095046 -7.0304575 0.37120485 0.37807983 0.7419318 -0.10477373
-0.0085232435 -0.0992509 -0.054138537 -0.2617364 -0.2851775 -5.3489065 -0.022186192 0.06175151
-0.030895893 -0.09754166 0.11264292 -0.31485856 0.051014867 0.08262845 0.5776216 -0.34555644
0.45716956 -0.03194229 0.39210245 -0.65557414 0.29077217 0.12213073 0.13983287 0.46774012
-0.5472363 -8.1580515 0.22446823 0.16920325 0.57681394 -0.068065815 0.19612134 -0.030513931
0.31577978 0.524033 -0.15246859 -6.454736 -0.2782254 -0.18163085 0.6183871 -0.22329715
-0.20035844 0.14577094 0.21817961 0.41690108 -0.85193115 -8.543145 0.17919508 0.18690084
0.7025845 0.12288727 0.0050599184 -0.10090315 -0.19407049 -0.7771661 0.35783336 7.7540636
-0.17418148 -0.24275847 -0.47857997 -0.2744561 -0.19566642 0.057942554 -0.2209956 0.42591485
-0.22354211 1.5975578 0.50534016 -0.18771116 0.73046356 -0.42801085 -0.11502807 -0.09135746
-0.5921749 -1.0782883 -0.5349903 -2.7607448 -0.30001578 -0.34053528 -1.1632409 0.49486956
-0.040345483 0.033969663 0.17733866 0.11842015 -0.14363535 6.5056934 -0.090012245 0.04692602
-0.21539977 0.1416221 0.14272352 -0.37157997 0.2598917 0.13717204 -0.61762065 -4.5077553
0.10444099 0.28202534 -0.10957574 -0.20280294 -0.024957413 0.3049459 0.101176955 -0.017595155
-0.34276772 -7.5874066 -0.040100947 -0.0032604977 0.05869534 0.0054476797 -0.1665822 -0.1021436
0.093340084 -0.3865143 0.40547988 6.4351325 -0.44853905 -0.15768601 -0.4419449 0.45967585
-0.07370683 0.053166524 -0.24824819 0.8060338 -1.2069786 -0.81483173 -0.29940087 0.34194848
0.5980595 0.7292549 0.17871651 -0.36141342 0.012051089 0.3047306 -0.80891985 -7.1276484
0.24170437 0.012543452 0.048923414 -0.29967424 0.14158633 -0.25360745 -0.10359502 0.11438763
0.047072086 6.244461 -0.0789227 0.12223959 -0.10371627 0.4804247 0.27265984 -0.07703136
-0.14749001 0.15701967 0.18781838 1.4009113 0.38759392 0.5796055 0.6185934 -0.06346827
0.073653676 -0.23918778 0.042169508 0.013924345 -0.42968518 -8.039744 0.111065604 -0.18760191

hidden1.bias f4 [256]
00000000: 5867 bf3e fd30 de3e 779d db3c 1e94 98be
00000010: 3a24 303d ec9e e43e ef5e fd3e dd5b 67be
00000020: 387c 6e3e 7331 583d 951f 1a3f 37ca d3bd
00000030: b49b 483e 2899 65be 27ca 18be ef9c d63d
00000040: 9fd7 c7be 41cd 0cbe 9cb9 273f 5024 493e
00000050: a016 33be c4b9 25bf 2d63 0d3c 4e13 f5be
00000060: fa98 853e e4b6 a2be 9b0f 40bc 99f2 25be
00000070: 228e 21bf 217a ea3d 3e6a 93be 1ffd ac3e
00000080: 6033 e93e 71d7 22bf 05aa 88be 4e2d 8fbe
00000090: 5521 65bf bac6 55bc 6c38 c73c 2172 b53e
000000a0: 963f 72be 4c58 8c3c 639c 123c 67da 313f
000000b0: 6bbd 70bf e223 bbbe 6aec 67bf 1bcb 8bbf
000000c0: 5629 bf3b 7f3e 20bf 6aab fe3c 056c 79bf
000000d0: 7df9 07be bd58 5dbf 50c3 513f 49d1 053e
000000e0: 9b0c 8ebe 4883 103f 75ed e6bf d4f3 e0be
000000f0: 0637 0b3f 4ec3 883e e907 c6bd 36a8 393e
00000100: 74f8 a23e c202 733e 1b72 a93d 4ccf 8ebe
00000110: 40e8 9bbe 1dfb 473f 87e2 823c c661 e73d
00000120: 10bd b53e 8f7e 07bf 5b60 8dbf 526d 23bf
00000130: 3669 5cbe ce1c 513e 0aec 013e 1052 173f
00000140: cde0 44bf 3ac4 3ebd 40b9 603d 45b6 7a3f
00000150: 37cc 823f 8738 083f b058 84be aea9 17be
00000160: ddeb b3be 990a c7be 6375 9f3e 2c3c ddbe
00000170: b4ea f43e d646 933e 5d9e 7bbe cb93 0ebe
00000180: 07ed f53e a161 fc3e 353d 51be b68d 413f
00000190: 9516 ee3c f01b 5cbf ac0f 343e e512 f2be
000001a0: 3381 d43d dd0d e93d 3021 513e 1203 c8bd
000001b0: 89db 0e3f 5d62 85bf c3b9 1fbf 4458 6d3e
000001c0: 28e5 f03d 298b 92bf 8c77 a2be 1cc3 743f
000001d0: 6f87 bdbe e37f 00bf 072e 823f 0fba 9e3f
000001e0: 6ffd 213f 7f3d 953e c36b 21be 652d e53e
000001f0: 72cd 75bf 572b c13e 8069 e63c 6426 8ebd
00000200: 6e0e 253f f293 8fbe 9b21 943f 2246 33bf
00000210: a4c7 a63f 2160 2ebf 0651 6bbf bafe cdbd
00000220: ea8a 9dbc 67bb a23e f46d ec3e f727 253d
00000230: 42a2 073f 1ebd 1a3e 515d 09bf 912d 52bd
00000240: 67a6 afbe 9185 813e 9b11 053e ba2e 3d3e
00000250: 842a 0cbc 7c41 813e 2e0a bbbe 19a6 8dbf
00000260: 1f35 6bbf 788a b13e 2aa7 ae3d 03ad 473e
00000270: 5f9f bbbe d567 823e 594d 413f 148d 353e
00000280: c512 043e cf9b fe3d bf4b 40bf 18e9 233f
00000290: f549 23bf c651 963e 28d8 82bc a10a 673f
000002a0: 2246 5d3f 3b88 43bc 7041 1abf be0b 91bf
000002b0: 96fc 5fbe e6b9 6abc f7a4 063f 60a4 0b3e
000002c0: 1d41 c63e 1211 44bf 2c7d 953e 693c 8a3d
000002d0: f2dd 65bc 3032 0c3e 1668 c53d 5a9f 96be
000002e0: 9584 bf3e 29d0 2b3f eb9f 63bf d43a f1be
000002f0: fae4 cdbd 5acf e73e 0dbe 4f3e 8438 6cbf
00000300: 69ca 033f 2cad 283f 957d a03d 946c 0fbf
00000310: 6ce8 bfbd bbf3 a2bf 889e 433f 4da1 a53d
00000320: d174 c93e fa21 a1bc 0b32 b7bd 5219 47bf
00000330: b28e 3b3f a3c8 00be 5fae 35bf 3442 4f3e
00000340: 1d82 d9be 8c0e 2a3d 7883 073e 0fd2 2cbf
00000350: c415 303f 2a88 593f 4538 133d 7915 1ebe
00000360: ede4 093f 85ac 4f3d b970 c8bd 5a76 c1be
00000370: 96e8 a23e 663f 16bf 6802 0d3e 642f 083f
00000380: 13bf 8bbd d738 8cbd 80a4 923e 078a bf3e
00000390: 3310 0dbe 6e79 82bf 8e9c 02bf 198c b4be
000003a0: ff37 50bf 3669 82be ea23 2dbf 6350 963e
000003b0: 056a 873e f242 6b3f 49fd 27bd 18f8 0dbd
000003c0: 0288 b1be 2638 2f3e 9d9c 0cbe 083c 89be
000003d0: 5168 67be e0df 573f ab04 6c3e 25cb 3e3f
000003e0: e604 633f 2b91 74bf a2e7 1bbf a42e 693f
000003f0: 77b8 49bc acd0 cfbe 4896 a0be 47db b93e
0.37383533 0.4339675 0.026808484 -0.29800504 0.0430033 0.44652498 0.4948649 -0.22593637
0.23289573 0.052781533 0.6020444 -0.10341304 0.19590646 -0.22421706 -0.14920865 0.104791515
-0.39031693 -0.13750173 0.6551759 0.19642758 -0.174891 -0.6473658 0.008629602 -0.4786629
0.26093274 -0.3178016 -0.011722471 -0.16205825 -0.631075 0.114490755 -0.28791994 0.33786866
0.4554701 -0.6360999 -0.26692215 -0.27964252 -0.89503986 -0.013047868 0.024318896 0.35438636
-0.23657069 0.017131947 0.008948418 0.6947388 -0.9403903 -0.36550814 -0.90595114 -1.0921358
0.005833785 -0.6259536 0.031087596 -0.9743045 -0.13278766 -0.8646353 0.8193865 0.13068117
-0.27743992 0.5645032 -1.8041216 -0.43936026 0.54380834 0.26711506 -0.096694775 0.18130574
0.3183018 0.23731521 0.08273717 -0.2789253 -0.3045063 0.78117543 0.015977157 0.11297946
0.35495806 -0.5292749 -1.104503 -0.63838685 -0.2152451 0.20421144 0.12687698 0.5910959
-0.7690552 -0.046573855 0.05486417 0.9793437 1.0218571 0.53211254 -0.25848913 -0.14810821
-0.35140887 -0.38875273 0.31144246 -0.4320997 0.47835314 0.2876498 -0.2457213 -0.13923566
0.480324 0.49293235 -0.20433505 0.7560686 0.029063502 -0.8598013 0.17584103 -0.4728004
0.10376205 0.11379597 0.20422816 -0.097662106 0.55803734 -1.0420643 -0.62392825 0.23178202
0.11762458 -1.1448718 -0.31731832 0.95610213 -0.3701739 -0.5019514 1.0170296 1.240053
0.63277334 0.2914848 -0.15763764 0.44761196 -0.9601661 0.37728378 0.028126478 -0.06940916
0.6447514 -0.2804256 1.1572756 -0.7002889 1.3029675 -0.6811543 -0.91920507 -0.10058351
-0.019231278 0.31783602 0.46177638 0.040321317 0.5298196 0.15111205 -0.53658015 -0.051312987
-0.34306642 0.25297216 0.12994997 0.18474856 -0.008555058 0.25245273 -0.36531204 -1.1066314
-0.9187793 0.34675956 0.08527978 0.19499592 -0.36645028 0.25469843 0.7550865 0.17729598
0.12897785 0.12432062 -0.7511558 0.6402755 -0.63784724 0.29359263 -0.015972212 0.90250593
0.8643514 -0.011934335 -0.602561 -1.1331708 -0.21873698 -0.014326548 0.52595466 0.13636923
0.38721552 -0.7658855 0.2919706 0.067498036 -0.014029967 0.1369102 0.096389934 -0.2941845
0.3740584 0.671145 -0.8891589 -0.47115195 -0.100534394 0.45275384 0.20287342 -0.92273736
0.5148073 0.6588924 0.07836453 -0.5602505 -0.09370503 -1.2730631 0.76413774 0.08087406
0.39346936 -0.019669522 -0.08945092 -0.7777301 0.7326461 -0.12576537 -0.70969194 0.20240098
-0.4248208 0.04151778 0.13233745 -0.67508024 0.6878321 0.84973395 0.035942335 -0.15437879
0.5386494 0.050701637 -0.09787125 -0.37785608 0.31818074 -0.5869049 0.13770449 0.5319731
-0.06823554 -0.06846779 0.2864113 0.37409994 -0.13775711 -1.0193307 -0.51020133 -0.35263136
-0.81335443 -0.25470895 -0.67632926 0.29358205 0.26448074 0.91899025 -0.041013036 -0.03466043
-0.34674078 0.17111263 -0.13731618 -0.26803613 -0.22598387 0.8432598 0.23048656 0.74528724
0.8867935 -0.9553401 -0.6090032 0.9108679 -0.012312046 -0.40588892 -0.31364655 0.36300108

hidden2.weight f4 [128, 256]
00000000: f2e6 01bf 11c5 2c3e f352 b9be 2837 75be
00000010: 991b ec3d 31a5 b33c 4b93 5b3c 1bbc 493f
00000020: 8bed 55bf b153 003e f535 b5bd cd1c b7be
00000030: 8765 84be b8b3 9fbe b072 293f a42e e0be
00000040: 0d2f 313f 0de2 bbbe 1925 aa3e 77e7 203f
00000050: c1f9 723f 3208 0d3c 6e7b 5bbe 3278 083e
00000060: 3bb4 f13d aa9e 34bd d0e5 f13d 3676 083f
00000070: 7b85 ecbd 85d1 153f b8fa 1d3d 8aeb 133e
00000080: 38b1 0c3f 4dec febe c9bc aa3d 16e5 953f
00000090: 4d7c 1fbe 867d 04bf 3abb 98be e42b bb3e
000000a0: 9f64 ea3d ec66 033f 88cc 833e 59c1 423b
000000b0: 30cf 0b3e ebc4 803f 6ffd e3bd 412b 6dbc
000000c0: af80 e5bd 2146 c8bd 472e c83d 490d 04be
000000d0: 6ef1 123f fab5 22be 3591 37be 45b4 e43d
000000e0: fc20 c6be f671 63bc 78a8 a8bd d57a 103d
000000f0: 5687 b9bd be48 843e a4ca 883c decf 96be
00000100: 1ba3 f93e 60e0 d6be 8c82 7b3e 1aa4 95be
00000110: b7ff 783e 9db5 833d 6706 393f 1d16 013e
00000120: 9dd4 31bf c697 853d 3170 fc3d 8e0e f5be
00000130: acf4 bdbe 1732 a5bd b015 4f3e 9fa9 80be
00000140: 1dae 213e 41a6 f03e dbce c0be 565a 3cbd
00000150: 999a 653d 18d9 58be 6b8d a6bb b60d 1f3e
00000160: 2eca 65bc 3ff9 f43e 5640 463e c1e3 5cbd
00000170: 2098 223f d27d 60be 1d06 863d d681 05bf
00000180: 6df5 f43b 733b 82be 62a9 203f 20e4 4bbe
00000190: 8156 2fbe a3fd 76be 74b1 77bd ac6e bb3e
000001a0: 326e 0ebf 2f24 2bbd c10c 1c3f bbb5 2d3c
000001b0: f09b e83d 01ca 683e d15e 1c3d 7c6b d83b
000001c0: fc96 7cbf 3274 a03e b0af 123f 1c67 f53c
000001d0: 5ac6 34be 1f16 b33d 546b 033f ee6b 093e
000001e0: 0549 d43d e909 df3e 4be4 a53c 2c18 bf3d
000001f0: 8cc6 a63e 8179 783b 75dc 82bd 771c 2b3f
00000200: 6395 35bd db19 2f3d efc3 a7bc 2ed4 563e
00000210: d358 6bbd 7841 7abd 546f b03e 1024 d93e
00000220: ed51 cbbe a1b4 d5be 1437 763d 5612 1c3d
00000230: 1c51 8bbe d9a7 323d 3ded c23e 0c49 58be
00000240: 1c60 1bbf e2b3 543f 935f 323e 9035 a5bd
00000250: 0a60 32be 8a28 04bf 2692 6cbd 7df8 52be
00000260: ef9b adbc 00e6 043c 94ab 07bd 8420 71bd
00000270: 3bb0 45be c90b cb3e 82b7 4ebe 9144 2cbd
00000280: ac1b 143e a7d2 153f a59d eb3d 0dd2 e8be
00000290: d8be a53d 196a 063e e11e babe 836e cf3e
000002a0: 4dae 64bc 1cc2 443e f5dc 9dbd a807 d73c
000002b0: aa64 1ebe 3322 26bf e961 82bc 1976 e3bd
000002c0: eb39 2ebc b575 ac3d dbf4 3cbf 2a2e 27bd
000002d0: 3de7 2e3c 5ca1 403d 4ae9 45be 34d7 dd3d
000002e0: 6fb4 44bf 9b22 33be 0279 b6bd 0899 363f
000002f0: b2bd a13c 4b1d efbe a069 b73d 3859 c1bc
00000300: f583 66bd 841f 35bd 31c1 d63c 39d4 c03d
00000310: 8397 cabe 4d8a 12bc 54cb 223d 57b1 773d
00000320: faca aabe e786 5d3e 8ffd a2bd 3b7d 3d3e
00000330: e252 0cbe 0f7b 1fbf 25bf 43be c779 a83d
00000340: 1df4 e1be 6f32 1d3c 38ac 2cbe b009 293e
00000350: e043 22bf 95d6 cf3d 6d14 9c3e def9 a7bc
00000360: 771a cf3d 7054 3fbe ff19 79bd e734 86bb
00000370: cf42 34bf fd38 533f 54f2 e0be 22f8 a13d
00000380: 2c10 a33e d4d3 573f 4496 cf3e 96b9 cfbe
00000390: fb0a 9c3d f93b 1c3e 29d2 d63d 63ea d93e
000003a0: 5d09 efbe 42f1 053e a2e7 af3d 42b5 d23d
000003b0: 49b1 01be 5eb3 80bf f129 383d 96b3 843d
000003c0: 02f0 f0be 2c70 ab3d fa91 0a3f b39e 57be
000003d0: f0d4 4d3e 2aaa 6fbc f70d 513e ea72 2a3e
000003e0: 4d0d 82be b0bb bb3d 12d1 c73d efda 7c3e
000003f0: 62a6 53bf 26a2 5dbe 8157 4e3e ab72 463e
-0.5074302 0.1687205 -0.36196098 -0.23946822 0.11528701 0.021929355 0.013401817 0.7880265
-0.83565587 0.12531926 -0.08848182 -0.3576416 -0.2585871 -0.31191802 0.66190624 -0.43785584
0.6921242 -0.366959 0.33231428 0.6285319 0.94912344 0.008607911 -0.21433803 0.13327101
0.11801954 -0.044096626 0.118114114 0.53305376 -0.11548897 0.58522826 0.038569182 0.1444532
0.54957914 -0.49789658 0.08336789 1.1710536 -0.1557476 -0.51754034 -0.29830343 0.36556923
0.11444973 0.5132892 0.25741982 0.0029717295 0.13653255 1.0060095 -0.11132323 -0.014475645
-0.11206185 -0.09779001 0.09774452 -0.12895693 0.5739964 -0.15889731 -0.17926486 0.11167196
-0.3869704 -0.013882151 -0.08235258 0.03527339 -0.090590164 0.25836748 0.01669819 -0.29455465
0.48757252 -0.4196806 0.24561518 -0.29226762 0.24316297 0.06431124 0.72275394 0.12606092
-0.6946505 0.06523089 0.12326086 -0.47862667 -0.37100732 -0.080661945 0.20223117 -0.2512941
0.15789075 0.47001842 -0.37657818 -0.04598459 0.05605564 -0.21176565 -0.0050827763 0.15532574
-0.014025254 0.4784641 0.1936048 -0.05392814 0.63513374 -0.21922997 0.06544135 -0.5215124
0.007475546 -0.2543598 0.6275846 -0.19911242 -0.17122842 -0.24120192 -0.060471967 0.36607873
-0.55636895 -0.041782554 0.6095696 0.01060241 0.11357868 0.22733308 0.03817636 0.00660461
-0.98667884 0.3133865 0.5729933 0.029956393 -0.1765379 0.08744454 0.51335645 0.13420078
0.1036549 0.43562248 0.02025046 0.09330782 0.32573354 0.003791422 -0.06389705 0.6684031
-0.04433192 0.042749267 -0.02047917 0.20979378 -0.057457756 -0.061097592 0.34459937 0.42410326
-0.39710942 -0.4173937 0.06011112 0.038103424 -0.2721032 0.043617103 0.38071623 -0.21121615
-0.60693526 0.8308698 0.17419271 -0.08066857 -0.17419448 -0.5162436 -0.057756566 -0.20602603
-0.021192519 0.008111477 -0.033122614 -0.0588689 -0.19305508 0.3965743 -0.2018719 -0.042057578
0.14463681 0.58524555 0.11504678 -0.45472756 0.08093041 0.1312641 -0.36351684 0.40514
-0.013957572 0.19214672 -0.0770816 0.026248768 -0.15468088 -0.64895934 -0.015915828 -0.1110651
-0.010633926 0.08420888 -0.7381112 -0.04081551 0.010675249 0.047028884 -0.19327274 0.10832062
-0.7683782 -0.1749367 -0.08909799 0.7132726 0.019743774 -0.46702036 0.08955693 -0.023602113
-0.056278188 -0.04421951 0.026215168 0.09415478 -0.3956872 -0.008944106 0.03974469 0.06047186
-0.33357984 0.21633492 -0.07958519 0.18504803 -0.13703492 -0.6229715 -0.19115885 0.08226352
-0.44131556 0.009594544 -0.16862571 0.16507602 -0.6338482 0.1014835 0.30484334 -0.020504888
0.1011247 -0.18684554 -0.060815807 -0.004095662 -0.7041444 0.8250883 -0.43934882 0.07908656
0.31848276 0.843076 0.4054433 -0.40571278 0.07619282 0.15257253 0.104893036 0.42561635
-0.4668683 0.13080314 0.08589102 0.102884784 -0.12665285 -1.0054739 0.044961873 0.06479566
-0.4705811 0.083710045 0.5412899 -0.21056633 0.2010076 -0.014627973 0.20415483 0.16645399
-0.25400773 0.09166658 0.09756674 0.24692892 -0.82675755 -0.21643886 0.20150568 0.1937968

hidden2.bias f4 [128]
00000000: afdc 9bbd ac8a acbd daba 76be 1e56 6ebe
00000010: 50bd af3e ab5a 08be e712 c5bd 1678 363e
00000020: dc1b 9fbe f84a 933e 354f e43e bc84 613b
00000030: 85e1 82bc dddb 9ebe faa3 0cbe bad0 9bbe
00000040: 755c a7be 2f4f 00bd dd35 d73d ac87 4abe
00000050: 1d24 183f fc3b ab3e 581e 08bf 901b 5c3e
00000060: 8d00 2ebd 2e83 8b3d 84c3 78bd da67 563c
00000070: a162 a1be 3161 2d3e f6ad 4fbe 7bc3 f5be
00000080: 647d fabe 1d84 8c3e d57f 7cbd fcab 303c
00000090: f7ed 05be 0847 4ebe bf9c 1c3e e5e9 78bd
000000a0: 8316 8b3e 8dc3 efbb 6a89 d4bd 5af3 443e
000000b0: 0281 303e 9f50 873e 288b 43be 5797 23be
000000c0: e29b 98bd 3580 323e 9514 913e c6cd 243e
000000d0: 3f72 a63d eacf 963d eb77 823e d207 82be
000000e0: 1077 bbbd 0070 a2be b497 0b3f 0b63 b23d
000000f0: b94e 2f3d bb10 d4be 49a7 363d cbc0 7e3e
00000100: d0b2 f63c bc1f 90be a3e8 01bd 04b2 d73c
00000110: 8978 98be c722 eabd 6e55 52be df45 263d
00000120: 56e9 83be 3453 c73c af32 613d 7eb5 cdbe
00000130: 4e95 a0bc 6b30 f6bc b62c 36be 9746 82bd
00000140: ef4b c93d f5c7 473c dc19 8f3c 587d 893d
00000150: 5cf5 8ebd 8858 d73e add2 b53e 8813 1e3e
00000160: 6d53 563e ec56 d23e 4432 993d 414d 173e
00000170: c65d 413e 2840 c4bd e95b 323e 4a1c b0bd
00000180: b48c 893c 195d 69be 89b3 8c3e a478 683e
00000190: b02b 4b3e b28c 12be 2ad2 fcbc 8d7e f2bd
000001a0: 4606 393d 4052 7e3c 7641 94be 5aef a93e
000001b0: 5c29 cc3e f9e9 7bbe e866 9d3e 68ca 413e
000001c0: 283c 293e 9308 b2bb 8a64 173f d10e ec3d
000001d0: 7521 b63c 3bd0 1cbd 4a44 5cbe 7ff4 b8be
000001e0: 6a63 5ebe f941 4abe 289c 1bbf b9c9 1b3e
000001f0: edc0 7bbe 082b 35bd 57ca 1f3f 9af8 8dbe
-0.076104514 -0.08424887 -0.24094716 -0.23275039 0.3432412 -0.13315837 -0.09622746 0.17819247
-0.31075943 0.28768134 0.4459168 0.0034411391 -0.015976677 -0.31027117 -0.13734427 -0.30432683
-0.32687727 -0.031325515 0.105083205 -0.19778317 0.59430104 0.33444202 -0.531713 0.2149489
-0.042480994 0.0681213 -0.060733333 0.013086284 -0.3152056 0.16931607 -0.20281205 -0.48000702
-0.4892379 0.27444544 -0.061645348 0.010783192 -0.13079058 -0.20144284 0.15294169 -0.060769934
0.27165613 -0.0073170126 -0.10377772 0.19233456 0.17236713 0.26428697 -0.19096053 -0.159757
-0.07451607 0.1743172 0.28336015 0.16094121 0.081272595 0.07363875 0.25482115 -0.2539659
-0.09153569 -0.31726074 0.54528356 0.08710297 0.042799685 -0.41419014 0.04459313 0.24878232
0.030114561 -0.2814921 -0.031716 0.026330002 -0.2977946 -0.114324145 -0.20540401 0.040593978
-0.2576396 0.024331667 0.054979976 -0.4017753 -0.019602444 -0.030052384 -0.17790493 -0.0636112
0.09828936 0.01219367 0.017468385 0.067133605 -0.06980392 0.4205973 0.35512295 0.15437138
0.20930262 0.4108194 0.074802905 0.14775564 0.18883428 -0.09582549 0.17417873 -0.08599146
0.016790725 -0.2278942 0.27480724 0.22702271 0.19840884 -0.14311484 -0.030861933 -0.11840544
0.045172 0.01552254 -0.28956193 0.33190423 0.39875305 -0.24600972 0.30742574 0.18924868
0.16526854 -0.005433151 0.59137785 0.115262635 0.02223275 -0.03828452 -0.21510425 -0.36124036
-0.21717611 -0.19751729 -0.6078515 0.1521367 -0.24585314 -0.04423049 0.6241812 -0.2772873

output.weight f4 [1, 128]
00000000: 7a2c 2ebd 1810 9fbd 3d20 6f3e fa8d ba3d
00000010: 02b3 563d 0fd9 b93e 1e05 77be b7fe b03c
00000020: c397 45bd 77a2 343d 04e3 223d 724f 183e
00000030: 8c25 403d 31da 523f 806a a13e 7136 c5bb
00000040: 680c 88bd 5016 293d 0b65 d3bb 7af3 53be
00000050: c47f 833d caf5 e33d dcb1 29bc 1510 a6be
00000060: 537a 613e 168b 88be ea7c 03bf b1b0 843e
00000070: d04a f03d e6e6 253e 9119 f9bc 1602 02be
00000080: b627 18bd e1aa e93d 5027 693c 3f3a f23e
00000090: ced8 28bd 1345 11bd 1604 50bc a939 893c
000000a0: 4176 b63d 4290 97be 599b aabe 755a aebd
000000b0: ee4d 72bc 22c0 ba3e 9a8c bebb a27b c23d
000000c0: 6803 42be 542e 80bc 2924 003e ee42 67bd
000000d0: 80f6 ecbc 0c56 ffbd 6a17 eebd 24f2 213e
000000e0: e7ca d4be ff1f 273d 2e07 f23d 9a18 b13c
000000f0: c67c 833e 7d6d 5b3d 7594 33bd d687 4b3e
00000100: 90c3 0fbe 2748 81be dec3 b0bd 0a51 bd3c
00000110: 195f 1dbf c63c 1f3e 8fcd dc3c 5441 cdbb
00000120: 48c9 29be 62da 8abc e303 b33d 63d0 c6bc
00000130: 019a 9b3c 9d56 cabd 82ee 453d 2f45 8abd
00000140: ccec 44be cd10 853e 76b0 2d3d c632 343e
00000150: 4539 ff3e 4e6d 993d b2b8 bdbd ce53 feba
00000160: e48c 0b3e 478b 3dbe 5d19 b9be bf31 06bd
00000170: 1611 f23c 8b76 ec3d a5c0 e53d 6128 843e
00000180: f755 23be ab7a e73e c22d c93d fb04 17be
00000190: 3fc9 393e 3167 79bd 1bfa 4fbd d979 1e3e
000001a0: b670 463c 4f5b 913c 394f ddbd d03b 0b3c
000001b0: 05a2 303d 7684 7bbb ce48 48be 06ad 203e
000001c0: d16f 073e 7d82 d9bd 8b2a 69bb 37dc e5be
000001d0: c7e7 42bd f3e2 f83d c70e d33e c613 89bd
000001e0: ce3a 2cbd 04f4 f5bc 033d 863d 714f 733d
000001f0: a922 0fbe a7fd 93bd 00ba d53d a416 b8bd
-0.042522885 -0.077667415 0.23352142 0.09109111 0.05241681 0.36298415 -0.24123046 0.021605833
-0.048240434 0.04410025 0.03976728 0.14874056 0.046910807 0.82364184 0.31526566 -0.006018453
-0.06642991 0.041281044 -0.0064512542 -0.20698348 0.06420854 0.11130865 -0.010357346 -0.32434145
0.22019319 -0.26668614 -0.5136248 0.25916055 0.11733019 0.16201362 -0.030407699 -0.12696108
-0.037147246 0.11409546 0.014230564 0.47310063 -0.041222386 -0.035466265 -0.012696287 0.016751127
0.08909274 -0.29602247 -0.33321646 -0.08513347 -0.014789088 0.3647471 -0.005815101 0.09496237
-0.18946612 -0.015647091 0.12513794 -0.056460313 -0.028926134 -0.12467584 -0.1162556 0.15815026
-0.41561052 0.040802 0.11817776 0.021618176 0.25681132 0.053571213 -0.04384275 0.19876036
-0.14039445 -0.2525036 -0.08631109 0.023109931 -0.6147323 0.15550527 0.026953487 -0.0062638912
-0.16580689 -0.016949836 0.08740976 -0.024269288 0.018994333 -0.098798014 0.048323162 -0.06751477
-0.19230956 0.2598938 0.042404614 0.17597494 0.4984838 0.07491551 -0.092637435 -0.0019403638
0.13627964 -0.18510161 -0.36152163 -0.032762285 0.029549163 0.11546048 0.11218385 0.25812057
-0.15950762 0.45210776 0.09823181 -0.14747994 0.18143176 -0.060889427 -0.05077563 0.15476169
0.012111833 0.017743735 -0.10806126 0.008498147 0.043123264 -0.0038378513 -0.19559023 0.15691003
0.13226248 -0.10620592 -0.0035578336 -0.44894573 -0.04758432 0.12152662 0.41222212 -0.066932246
-0.042048268 -0.030023582 0.06554606 0.059401933 -0.13978066 -0.07226115 0.10435867 -0.08988693
