env1_gail_actor.ckpt (torch, 22744 bytes, 6 tensors)

actor.0.weight f4 [64, 9]
00000000: 7817 e7bb 1096 f4bd 1d44 e63d 7803 f23e
00000010: c255 bf3d 6654 cc3d 5117 42be 5c53 9dbe
00000020: fea0 aa3e 028b 953c 3a9b cbbd 7d81 683b
00000030: 7ace 2e3e c014 06be 6317 13be 0aa8 fe3d
00000040: e110 503e 5353 333e c0c4 a2bd e12f 073d
00000050: 9362 683e f270 69bd e1aa 3d3e 26c0 263e
00000060: 7e13 15be c409 6bbe 6878 773e a27b 7dbd
00000070: 34be a9bc 5134 c8bd 0f73 fb3e 9421 2ebe
00000080: ee29 23be 3caa 2cbe 8998 ccbe 9e9c 313e
00000090: 3eba a83b 5dc1 c03b 94e6 6bbe bb84 ad3c
000000a0: 317b 1dbe 28f5 98be 1608 3f3d e849 debd
000000b0: f36f 5dbe 6788 22be ea56 7bbe 3422 eb3e
000000c0: d31a 483f 9e73 863c 561d ed3b 4531 f23d
000000d0: 3121 29be 8bd8 07be d17c aebe 8a09 2cbf
000000e0: 2337 f73d 31fd bdbf 5a1a 8abe a561 c8be
000000f0: e484 e4be 2bb9 be3e 6bf8 e3bd 8840 82be
00000100: a15b 9bbe e4eb e4bd 8ba9 77bf c7a0 35bc
00000110: 053c 40be a2c2 08bf db3c 213d 1325 5d3e
00000120: 6b8f 953e b2ca 4d3e 902c db3e e7e8 b3be
00000130: 84b0 c13e d125 39bf 8f53 613e b0f9 81be
00000140: 743d a4be 3cf6 e43d bee2 c7be bb3e ae3e
00000150: 564f d8bf 5e88 6f3e 39c9 b33e d655 f7be
00000160: effa 873d c004 ca3d 862b cdbd 2cb0 b2bb
00000170: 806d 90be 9e48 3ebf 9bc7 e73d ead5 8a3d
00000180: a6e7 1a3e 11b6 83bd a0b4 403d 5ce5 893d
00000190: d48e 90bd 1e9b 9dbe 98f2 5e3f 5ddb dfbc
000001a0: 7d85 41bc ee15 d7bd 89c6 ea3d b260 943e
000001b0: ee21 28bd fe2a 40be 769f 233e bbe5 a8bf
000001c0: 7290 493e 0288 843e 62f1 883e 17e5 ac3c
000001d0: 586b 583e 705a d33e 7a47 b1be ab29 dc3e
000001e0: 8b16 12bf 3c71 a2bd 16da 4c3e a0c9 02bf
000001f0: 1100 fcbe 28a1 563e 8b32 873d 8556 ff3d
00000200: 391d 70be c9ef b4bd 9ca8 5c3e 3c50 8b3e
00000210: 0153 b1be 02d7 71be 7697 2a3e c7cd c5bd
00000220: 1b41 983f 0a57 2bbd 0b3a 623f fe8a c23d
00000230: 79d8 02be 3b3d a83f 8449 f13b 96f4 003e
00000240: 54cd 533d c0c7 7e3d 6fbe ebbc a5b7 68bd
00000250: c62a d73d efdf 273d 76d0 83be 129e cb3e
00000260: 6b1c 87bd a57c f03d 886f c23c 74dc 0fbd
00000270: 4ff9 0bbf 156d f8bd a6fe a2bc f0ab 753e
00000280: c2f6 5d3e f67c 4a3d d9dc 133d 4699 2a3d
00000290: f44f 3fbe b03e 363f 7455 59be fa5b a4be
000002a0: 86fb 853d 00e1 69bd 0ba0 293e c5c9 973c
000002b0: b4a7 37bb 1294 44bc e443 8e3f 051f 87be
000002c0: 8717 16be fc96 86bd 721a 72be 6852 1fbe
000002d0: b844 a03e 88cc 67be a77e 5c3d 6186 83be
000002e0: 3ad7 51be 9cf0 24be a2ea 2ebf 31c7 24bd
000002f0: c39f 29be d7b5 06bd ba3b 47be 9887 573e
00000300: 075c 463f 45c6 17be 0efb 2abe 4ea6 0c3e
00000310: 3397 cbbd 5300 75be e38d 353d 8dad 22be
00000320: c929 a1bd 659d b93f 729a 40be eb66 dfbd
00000330: 21dd a5bd 904d 1a3e f09c 693e feb2 8a3c
00000340: 317d b33c 3ae5 a6be 9399 913e d90a c2bd
00000350: e351 ddbd db32 b6bd a7f6 c23c 3bc5 d8bd
00000360: 30e7 483d be59 29be 59ee 953e 93c7 7e3d
00000370: b166 e5bd 55d0 c63d 2590 16bf 9a04 56be
00000380: 7371 6fbe 4644 1ebd 58c8 86ba 5b5d 2f3f
00000390: 2090 88be 8405 193e 7826 8dbf 3360 9dbe
000003a0: f676 86be 4bdb a63e ae34 af3c 6b27 21bd
000003b0: df9f ab3c 8ecc 733f d876 0fbe cf43 87be
000003c0: f94b 4f3d 68ad 7bbe 5e53 07be bdc9 b8bd
000003d0: aab8 d33e c42f 6b3e 578d 0140 6bc0 9abd
000003e0: 68c0 98be e6fd fc3e 1d04 fe3d 1b3a d23d
000003f0: 686f bb3e d448 9c3f 9350 2c3f 65c6 4e3e
-0.0070523582 -0.11942685 0.1124346 0.4726827 0.09342529 0.09977035 -0.18954207 -0.3072766
0.33325952 0.01825476 -0.099417165 0.0035477572 0.17070952 -0.13093853 -0.1436439 0.12434395
0.20318939 0.17512254 -0.07947683 0.033004645 0.22693853 -0.05699248 0.18522216 0.16284236
-0.14558217 -0.22952944 0.24167025 -0.061885484 -0.020720579 -0.097756036 0.4911122 -0.17004997
-0.15933964 -0.16861814 -0.39960125 0.17344901 0.005149155 0.0058824257 -0.23037177 0.021181455
-0.15379025 -0.2987454 0.04663857 -0.1085394 -0.21624736 -0.15872346 -0.24544874 0.45924532
0.7816593 0.016412552 0.007236163 0.11825804 -0.16516568 -0.13266198 -0.34079602 -0.67202055
0.12071063 -1.4842893 -0.2697323 -0.39136997 -0.44632638 0.37250647 -0.11131366 -0.25439858
-0.30343345 -0.11177805 -0.9674308 -0.011085696 -0.18772896 -0.53421986 0.039364677 0.21596174
0.29210982 0.20096853 0.42807436 -0.35138628 0.37829983 -0.7232333 0.22004531 -0.2538581
-0.32078135 0.11179778 -0.39040178 0.34032235 -1.6899211 0.23391864 0.35114458 -0.48307675
0.06639659 0.09864187 -0.10018067 -0.00545313 -0.28208542 -0.74329555 0.113173686 0.06779082
0.1512743 -0.06431211 0.047047257 0.067332 -0.07058492 -0.30782408 0.8708892 -0.02732628
-0.011811611 -0.1050223 0.11463649 0.28980023 -0.041047983 -0.187664 0.15978798 -1.3195108
0.19684008 0.25885016 0.2674666 0.021105332 0.21134698 0.41279936 -0.34624845 0.4300054
-0.5706565 -0.07931754 0.20005068 -0.51088905 -0.492188 0.20959914 0.06601437 0.12467674
-0.23448648 -0.08834798 0.21548694 0.2720965 -0.3463364 -0.23617175 0.1665934 -0.096583895
1.1894869 -0.041831054 0.88369817 0.09499167 -0.1277789 1.3143686 0.0073635 0.12593302
0.051709488 0.062202215 -0.02877733 -0.056815762 0.10506205 0.040985044 -0.2574498 0.39769036
-0.06597217 0.11742524 0.023734823 -0.03512235 -0.5467729 -0.12130181 -0.019896816 0.2399137
0.21676162 0.04943558 0.03609929 0.04165008 -0.18682843 0.71189404 -0.21224004 -0.32101423
0.06542115 -0.057099342 0.16564958 0.018528828 -0.0028023543 -0.011998193 1.1114469 -0.26390854
-0.14657412 -0.06571767 -0.236429 -0.15558779 0.31302428 -0.22636616 0.053831723 -0.2568846
-0.20492259 -0.1610741 -0.6832677 -0.040229026 -0.1656485 -0.03288826 -0.19456378 0.21047819
0.7748417 -0.14821728 -0.16697332 0.13735315 -0.09940948 -0.23925905 0.044324767 -0.15886517
-0.07869298 1.4501158 -0.18808916 -0.10908302 -0.080988176 0.1506865 0.22813773 0.016931053
0.021910282 -0.3259676 0.2843748 -0.09474725 -0.10806634 -0.08896419 0.023799254 -0.10584494
0.049048603 -0.1653814 0.29283407 0.062202048 -0.112012275 0.09707705 -0.588137 -0.20900193
-0.23383121 -0.03863933 -0.0010283096 0.68501824 -0.2667246 0.1494351 -1.1027365 -0.30737457
-0.26262635 0.32589182 0.021387424 -0.039344233 0.020950256 0.95234 -0.14010179 -0.2641892
0.050609563 -0.24577868 -0.13215396 -0.090228535 0.41351825 0.2296744 2.0242517 -0.07556232
-0.29834294 0.4941246 0.12403128 0.10264989 0.36608434 1.2209725 0.67310447 0.20192869

actor.0.bias f4 [64]
00000000: dd2d 0a3e d485 8abc f2e7 21bd dbb5 663e
00000010: 3807 88be 6e39 d53e faf5 6fbe c0ab b8be
00000020: 8048 a63d 967f 16be 73bf 353c d57c d23d
00000030: 6348 fe3d e516 1a3f f9aa 9fbe 3d06 69bc
00000040: 685d 983c 04cf b7be 3552 d7bd 5d6f f53e
00000050: d73e 363e 9fa5 923e 1e79 d03e f3f6 633d
00000060: b8e0 2dbe 6503 f13e b9f8 49be acee f53b
00000070: 5e04 2e3e f00e 84be a4f0 be3a 24f8 1e3e
00000080: 6410 e1bd 93f6 03be 5c4a 46be a8ce b93e
00000090: e3e3 c93d ac54 c33c abff 6e3e 66b2 a33e
000000a0: d928 9c3d 79c8 d4bd 83ca 373e 26e8 853e
000000b0: 7b28 d73d 03f8 5fbe ee61 b83d 9868 e0be
000000c0: 3e04 75bd 5216 753e e4e8 59be ba58 11be
000000d0: ede7 b0be 0f3d 18be fcfc 54be 0144 d1be
000000e0: 3fcb ce3e dd2a b63e 8799 853e 35ac 5a3d
000000f0: 4f99 7b3e 3090 1a3e e231 a43e 8a83 26bf
0.13494058 -0.016909517 -0.03952784 0.2253031 -0.26568007 0.41645378 -0.23433676 -0.36068535
0.08119297 -0.14697108 0.011093008 0.10277716 0.124161504 0.60191184 -0.3118513 -0.014222679
0.018599227 -0.35900128 -0.105137266 0.47936526 0.17797409 0.28641984 0.40717405 0.05565543
-0.16980255 0.47072902 -0.19723786 0.0075052585 0.16993853 -0.25792646 0.0014567566 0.15524346
-0.109894544 -0.1288703 -0.19364303 0.3629048 0.09857919 0.023844086 0.23339717 0.31972045
0.076249786 -0.103897996 0.17948346 0.26153678 0.10505768 -0.21871953 0.090030536 -0.438298
-0.0598185 0.23934296 -0.21280247 -0.14194003 -0.34551945 -0.14867042 -0.20799631 -0.40872195
0.4038944 0.35579577 0.26093695 0.053386886 0.24570201 0.15094066 0.32069308 -0.6504446

actor.2.weight f4 [64, 64]
00000000: 8ca1 dabc 3feb ed3c fb24 1b3d 1160 1abc
00000010: 74b6 20bc ba57 ad3a 07f4 0abe 2f5d c23d
00000020: ca71 c5bc 05f2 6e3c a5ed 2ebc 603c fc3a
00000030: 57fc 7dbd 9ac1 62bd f488 f13c 4980 2abd
00000040: 95a5 acbc 1676 b13c e91d e0bc fca4 c43d
00000050: 6441 523d 87b0 f8bb a547 51bd 0ee9 86bd
00000060: 1739 ac3d d5c7 963c ecf1 6f3d 8a75 88bd
00000070: 4d18 9b3c 6210 43bd 7d85 f33d df86 0abd
00000080: 8893 b43d 17d5 183c f82e 673d ff57 043e
00000090: 3b05 b63c 5999 8a3c 0456 cb3d 3c7e 2f3d
000000a0: d454 663d 62a3 97bc 4e83 a33d 13d0 28bd
000000b0: a1b2 e1bd 1857 d8bc 8392 deba 6308 b93d
000000c0: 1e46 10bd fd34 1c3d 61cb 6cbc 63aa 04be
000000d0: e2b3 8b3d b34c 5a3e 3ea8 643d 8283 8bbb
000000e0: 751d 3d3d 0f40 d53c cb78 8ebc 3d87 ee3d
000000f0: 637e 7d3b 0267 1f3c 64a0 513b a59f 3d3c
00000100: 288a f13c 07ca e43b 9c05 933c 284d a8bd
00000110: 46ce 033d 2b4b acbb 218c dd3b b644 133d
00000120: 0f10 87bc 0015 e93d bcd9 543d 46e3 89bd
00000130: 9aa2 56bb c9bf 52be e567 363c 7849 96bc
00000140: 19da 5d3d 6243 483d 3508 01bc 59e5 4cbd
00000150: c4af 3bbe 1c2c 5a3d 4a96 5a3c ca54 cfbc
00000160: bf10 9dbd 00f7 ed3d ff77 aebc 1bcb 2e3c
00000170: b383 a43d 0edd 4ebd a1a0 193d b3f2 0c3d
00000180: 0bed 29be 39b0 423c 4546 d2bd 3939 023d
00000190: 03e8 c13c 6f4b 623c dfcc 833d 5027 d93d
000001a0: 02a4 883c 2924 a03d f2bc 9c3d 29cd 6b3d
000001b0: 41f6 b53c 5af1 2dbe 3875 833d 7bbc 81bc
000001c0: e6f2 66bd 55a5 67bd 88d8 573c f6cc 923c
000001d0: 4a4e 11bd 877e 693e 3783 8cbd 2925 8cbd
000001e0: fac8 cabb eb79 9b3d 0cef 003d 9a44 a2bc
000001f0: 2a49 80bc 7f91 153d f24e a63d f519 f6bd
00000200: 4966 a8bc 68db 36bd ff3b 9a3d a68a ca3d
00000210: 5ca2 f3bc 0f98 82bd 7d03 353d ef77 87bc
00000220: 5b5a f8bc 3a30 b5bc bf78 083d 551a ac3c
00000230: 15b7 053d 9397 983d 0870 843d 9b4b 703c
00000240: 3a08 86bc 8f59 17bb 4c0f ba3c 8b62 17bd
00000250: e8bc 7a3d b142 16bd 5d7f 1cbc f5d8 31bd
00000260: 1366 a3bb fbee 923d 4e9a 333b 8bc1 823d
00000270: c345 ab3d 64c6 5c3d 96a9 84bb 6f22 34bc
00000280: 8696 413d 7290 b2bc 7072 d1bc 1ffc 1ebd
00000290: c4bd 453d b5f2 8bbd a83e ef3c 342d 84bd
000002a0: f303 ff3c 33e9 dbbc b5b5 ca3c 32f0 83bb
000002b0: d059 44bc 1e27 ee3d 2fc6 5bbc 0660 4e3d
000002c0: 8fd9 263e 5185 fb3c 4b27 b03c 2bb7 003d
000002d0: 6290 c7bd 12dc 8ebe 37cd e3bc 69bb b23d
000002e0: 21b7 6abe 2dca f0bc 6bb8 d43c 1cd3 f53d
000002f0: bfa1 3cbc 1106 dabc 3caa 983d 92bd e43c
00000300: 5594 c43d 6bdb b33b 48d4 0dbd fbd2 963d
00000310: f885 143d 82ea 033d a3fa 253d e6e2 4cbc
00000320: 1602 8abc 7d8f 37bd 9734 7dbd 38dd 92bd
00000330: 37af e63c 4709 f6bd 5125 5f3c 0f41 8abd
00000340: 65cc e6bd 0d0b 04be 87bf dbbc 0dcc 1dbd
00000350: 3ee5 363c 91a4 e53c d1a6 8cbc 380c 8bbd
00000360: 9e6a 133d b74e c83c d657 5b3c 991c d6bc
00000370: 993d 56bd 5477 8bbd d22c 4c3d af65 083d
00000380: 318b 2abd ff0a 013c aae8 173d 6fc9 eabc
00000390: f077 e7bc 1c1d ec3d ff93 ea3c 6521 99bc
000003a0: 8162 9b3d d1bd edbc 67a8 8dbd 98e6 173d
000003b0: e41d ddbc 51fe 3cbb bd69 1cbd 79a1 34bd
000003c0: dc9b 8fbe a10b 86bd 8770 b6bd 3a7a a73d
000003d0: f889 7dbd d58d cf3d 33bf 103a 860a 55bd
000003e0: 8720 64bd bb66 06bd d69a b6bc dd0e 1a3e
000003f0: ac2f d63b d269 8fbd 95f6 4a3d 6a5e abbe
-0.02668836 0.029042838 0.037877064 -0.009422318 -0.009809125 0.0013224997 -0.13569652 0.094904296
-0.02410211 0.014584069 -0.010676776 0.0019244067 -0.06200823 -0.055360414 0.02948425 -0.04162625
-0.02107505 0.021662753 -0.027358012 0.09601781 0.051331893 -0.007589403 -0.051093716 -0.065874204
0.084093265 0.018405834 0.058580324 -0.06663044 0.018932486 -0.047623046 0.11890695 -0.03382003
0.08817202 0.009328148 0.056441277 0.12924193 0.022219291 0.016918825 0.099285156 0.042844996
0.056233242 -0.018510524 0.07984029 -0.04121406 -0.11020399 -0.026408717 -0.001698092 0.09034803
-0.03522312 0.03813647 -0.014452786 -0.12955622 0.06821419 0.21318321 0.05582451 -0.0042576203
0.04617067 0.026031522 -0.017391583 0.116468884 0.0038680069 0.009729149 0.003198647 0.011573707
0.029484823 0.0069820913 0.01794701 -0.082178414 0.03217914 -0.005257984 0.0067610894 0.0359542
-0.01648715 0.113809586 0.05196546 -0.06732802 -0.0032750727 -0.20580973 0.011133169 -0.01834558
0.054163072 0.048892386 -0.007875492 -0.05002341 -0.18328768 0.053264722 0.013341496 -0.025308985
-0.0766921 0.11619377 -0.021297453 0.010668541 0.08032932 -0.050503783 0.037506703 0.034411144
-0.16594331 0.011882835 -0.10267309 0.031792853 0.023670202 0.01381193 0.064355604 0.106032014
0.016679768 0.07819397 0.07653226 0.057568703 0.02221215 -0.169866 0.06418842 -0.015836945
-0.05638399 -0.056554157 0.013174184 0.017919999 -0.035475053 0.22802173 -0.06860965 -0.06843025
-0.006188509 0.075916134 0.031477973 -0.019808102 -0.015659887 0.03651571 0.081205264 -0.1201667
-0.020556586 -0.044642836 0.075309746 0.09889726 -0.029740505 -0.06376659 0.04419278 -0.016536681
-0.030316522 -0.022117723 0.033318277 0.02100865 0.032645304 0.074507855 0.06466681 0.014666463
-0.016361345 -0.0023094153 0.022712372 -0.036959212 0.06121531 -0.036684696 -0.00955185 -0.043419797
-0.0049865334 0.07174488 0.0027405205 0.06384572 0.08362915 0.053900138 -0.0040485365 -0.010994538
0.04726269 -0.021797393 -0.025567263 -0.03881466 0.048276678 -0.06833402 0.029204682 -0.06453934
0.031129813 -0.026844596 0.024744848 -0.0040264362 -0.011984304 0.11628555 -0.01341395 0.050384544
0.1629393 0.030703219 0.021503111 0.031424683 -0.09744336 -0.27902275 -0.027807815 0.08727152
-0.2292142 -0.02939328 0.025966844 0.120031565 -0.011513173 -0.02661422 0.07454345 0.027922425
0.095986046 0.005488803 -0.034626275 0.0736446 0.036260575 0.032206066 0.04052223 -0.012505269
-0.016846698 -0.044814575 -0.06181773 -0.071711004 0.02815972 -0.12013488 0.013619737 -0.0675069
-0.11269454 -0.1289484 -0.026824726 -0.038524676 0.011163054 0.028032573 -0.017169388 -0.0678944
0.03599035 0.024451597 0.013387641 -0.026136683 -0.052304838 -0.068098694 0.04984743 0.033300098
-0.04163665 0.007876157 0.03708712 -0.028660504 -0.028255433 0.1152899 0.028635023 -0.018692682
0.075871475 -0.029021176 -0.06916886 0.037085146 -0.026991792 -0.0028838108 -0.038186777 -0.044099305
-0.280486 -0.06545187 -0.08908182 0.0817761 -0.061899155 0.10134474 0.0005521655 -0.05201199
-0.055695083 -0.032812815 -0.022290628 0.15044732 0.0065364446 -0.070026055 0.049551565 -0.3347047

actor.2.bias f4 [64]
00000000: 6323 c73d 95a1 90bd cf0c abbd 0b98 02be
00000010: 873c 8c3d 4a19 cf3d 28e9 a2bd aa40 073e
00000020: d7f9 103e 97bf f33d 6169 a7be 20fc 973c
00000030: b1ed afbd 654d 473e e438 e5bc 1043 883d
00000040: a283 24bd da3f a6bc 9f48 d73c 05c9 ddbc
00000050: 5118 c0bc 93e2 c03d 6ab6 b4bd 679f 18bc
00000060: 89d5 e83d 1dcd 0fbd 6e98 983d 0529 8bbd
00000070: 6d36 59bd 1838 603c c6fa a73e 2c6c 05be
00000080: 800e 813c 0869 73bd 09b4 b0bd 65f4 053c
00000090: cd61 8abc f2c2 903d 76e9 9bbc 1954 bd3e
000000a0: ac0f 1abb a552 2c3d 0dcb adbc 4899 303e
000000b0: 7877 b83d 63df 6d3d 93c2 543d 2448 703d
000000c0: 84d9 103e e265 63bc b456 d6bd 3b37 0e3e
000000d0: cec5 0e3e a534 ba3c eac3 7abb 6762 013e
000000e0: f53f 253e c40a b0bd c658 0d3d c1d8 17be
000000f0: 0284 13bd 216f 873d ac64 7bbc e300 233d
0.09723546 -0.07062069 -0.083520524 -0.12753312 0.06847482 0.101122454 -0.07954627 0.13208261
0.14157806 0.11901777 -0.32697585 0.01855284 -0.08590258 0.19463117 -0.02798123 0.06653416
-0.040164597 -0.020294119 0.026279746 -0.027073393 -0.023449095 0.094182156 -0.08823855 -0.009315348
0.113688536 -0.03510772 0.07450949 -0.06794933 -0.05303042 0.013685249 0.32808512 -0.13029546
0.015753984 -0.059426337 -0.08628089 0.008175944 -0.016892338 0.07068433 -0.019032221 0.36978224
-0.0023507876 0.042071003 -0.021214986 0.17245972 0.09007162 0.058074366 0.051943373 0.05866255
0.14145476 -0.013879271 -0.10465756 0.13888256 0.13942644 0.022730181 -0.0038263747 0.12635194
0.16137679 -0.085958034 0.03450849 -0.14828779 -0.036014564 0.06612993 -0.015343826 0.039795768

actor.4.weight f4 [3, 64]
00000000: b29a 5d3b 4d52 943c 3733 3cbd 12a3 6a3c
00000010: 1c41 05bd 5b36 543b cb63 513c 2189 8c3d
00000020: 1410 2a3c 83db 66bd 23d3 bdbd b714 4d3b
00000030: a51d f43b 4b22 673b 3d1c 6fbd b1f6 b8bd
00000040: 59f5 b63c c63c 30bd c88a 94bc 3590 0b3d
00000050: 6958 53bd 1b56 163d 48ab 59bd d187 2f3d
00000060: d7a9 773d a310 a1bc 619c 1e3d 6623 07bd
00000070: 9885 853d bb0e 05bc 9679 7a3b f3d9 433c
00000080: b140 9fbd 3de4 31ba 9c52 1ebd f046 8a3c
00000090: 6997 d23c 0874 583c f376 993b fca9 c63c
000000a0: 6933 27bd d8d3 9d3d b45a 4abd fb6d 40bd
000000b0: a631 eb3c f4d7 fdbc 57d5 0dbd 1c3e bc3b
000000c0: 89f2 13bd 3c14 0ebd d405 56bc bf03 033d
000000d0: 5d9e 28bd 6703 873d a300 8e3d c8ed d437
000000e0: fe60 a2bd ac5b b0bb 5784 8d3d d5eb f83c
000000f0: 15a4 9fbc 86ce 9cbd 481d 4d3d cba5 c63a
00000100: 503d b53b 1093 8d3b cfd3 08bd c2a1 a93c
00000110: 7677 bdbc 1374 ad3a 6bbe a6bb 0896 873d
00000120: b02d 7d3c d78c 69bd 1945 3cbd 9063 0dbc
00000130: fa85 5e3c 5787 b43b f86b 4cbd 3bf6 9fbd
00000140: 77e3 953c c1cd 26bd 0e9f d4bc 2ff2 cc3c
00000150: 8e8c 5fbd c23b 1f3d 97f6 44bd c255 513d
00000160: 4a36 603d 2280 253b 2928 f23c 37e3 d3bc
00000170: 6c6e 8c3d 3626 a6bc 2d45 383d 794b be3c
00000180: 480a efbc 9869 febb 5162 39bd 6c24 d33c
00000190: 0f95 073d 76a0 cf3c cb66 483b 48e8 3d3d
000001a0: c0d5 f7bc 18a3 b93d f1cd b0bc f3c3 f5bc
000001b0: 2204 533c cc0e efbc 505d 34bd 5373 43bb
000001c0: c93e 2fbd a3eb 02bd 88fc ccbb cd6b e43b
000001d0: 9543 56bd 5815 7d3d d179 d93c a71d 0dbb
000001e0: ccee 94bd 479d 58bc 5158 693d 8521 243d
000001f0: 9166 b4bc 9134 a0bd 4647 5d3d 3c69 a9ba
00000200: ac86 d7bb 96af aabb d2dd 20bd 99c6 283c
00000210: 8854 30bd ed77 4fb9 6d1f b13c ea12 693d
00000220: 3877 343b a102 45bd 7ace 7bbd f2c0 0abc
00000230: 8b3b ed3b c802 8fbb 8cfa 68bd 50d3 d0bd
00000240: d799 963b ddfc f2bc aaca b9bc 4e7b 033d
00000250: 1e94 8abd f783 b13c 1a83 74bd 3cc5 423d
00000260: 41e0 443d 2426 cfbc 7d96 033d 2237 23bd
00000270: 9a74 753d 9f7a 14bc 991f 2f3d 9926 ae3b
00000280: bd5d 30bc 58b6 94bc fdc9 63bd 8119 b33c
00000290: d60a 2b3d 7707 e13c 74e4 0ebc e993 3c3d
000002a0: 1f57 cabc c857 983d c766 38bd 7362 cebc
000002b0: 4d53 e73c 656a 15bd 91d3 debc f73d 953c
000002c0: f6a7 49bd 9b62 12bd 43a6 9cbb b732 8b3c
000002d0: 986d dfbc b45e 5c3d 4321 8e3c be45 8abb
000002e0: e421 c9bd 159e 8c3b 3d42 753d d5aa 543d
000002f0: 8477 4e3b b4b0 b1bd 889a c93d 8518 40b9
0.003381413 0.01810565 -0.04594728 0.014321106 -0.032532796 0.0032381031 0.01278014 0.06862093
0.01037981 -0.056361686 -0.09268787 0.0031292865 0.007449823 0.0035268243 -0.05837654 -0.09031428
0.022333788 -0.043026708 -0.018132582 0.034073073 -0.051597986 0.03670321 -0.053141862 0.042854134
0.060464706 -0.019661253 0.038723353 -0.032992743 0.065196216 -0.008121188 0.0038219444 0.011953819
-0.07776011 -0.00067860243 -0.038653 0.016879529 0.025706964 0.013211258 0.0046833693 0.024250977
-0.040820513 0.077064216 -0.049402907 -0.046979886 0.028710198 -0.030986764 -0.034627285 0.0057447087
-0.03611997 -0.034687266 -0.013062913 0.031985994 -0.041166652 0.06592446 0.06933715 2.5383095e-05
-0.07928656 -0.005382022 0.069100074 0.030385891 -0.01948742 -0.07656579 0.050076753 0.0015155611
0.0055309907 0.0043205097 -0.03340512 0.020707015 -0.023128252 0.0013233445 -0.0050886176 0.06620413
0.015452787 -0.05701908 -0.045964334 -0.008629695 0.013581747 0.005509298 -0.049907655 -0.078106366
0.01829694 -0.040723566 -0.02595475 0.025017826 -0.054577403 0.03887535 -0.04808673 0.051107176
0.054739274 0.0025253375 0.029560165 -0.02586518 0.06856999 -0.020281892 0.044987846 0.023229348
-0.029179707 -0.0077640526 -0.045259777 0.025774203 0.033101138 0.025345068 0.0030578848 0.0463641
-0.030253291 0.09064311 -0.021582576 -0.030000662 0.012879403 -0.02918186 -0.044034302 -0.0029823377
-0.042784486 -0.031963002 -0.00625569 0.0069708587 -0.052310545 0.061787933 0.026547344 -0.0021532567
-0.072721094 -0.013221092 0.05696899 0.04007103 -0.022021564 -0.07822526 0.05402305 -0.0012925039
-0.0065773334 -0.0052089198 -0.039274044 0.010301256 -0.043049365 -0.00019785734 0.02162143 0.056902803
0.002753688 -0.04809821 -0.06147621 -0.008468853 0.007239764 -0.004364345 -0.056879565 -0.10196555
0.004595976 -0.02966159 -0.022679646 0.032100014 -0.06766532 0.021669371 -0.05969534 0.04755138
0.048065428 -0.025286742 0.03212594 -0.0398475 0.059925653 -0.009062438 0.042754743 0.00531466
-0.010764536 -0.018153355 -0.055612553 0.021862747 0.04175838 0.02746938 -0.00872146 0.046039496
-0.024699746 0.07438618 -0.04501989 -0.025193429 0.028237963 -0.03647842 -0.027200492 0.018218024
-0.049232446 -0.03573857 -0.004780562 0.016991956 -0.027273938 0.053801253 0.017349845 -0.0042197397
-0.09820917 0.004291306 0.059877623 0.05192073 0.0031504342 -0.086762816 0.098439276 -0.00018319681

actor.4.bias f4 [3]
00000000: e245 ebbc a998 f4bc 1cf1 15bd
-0.028719846 -0.02985795 -0.036606893
