env1_gail_critic.ckpt (torch, 22242 bytes, 5 tensors)

critic.0.weight f4 [64, 9]
00000000: 543d 86be 3ee8 543e 9877 773e 8752 90be
00000010: 96f6 8b3e 62c4 8e3e 50f1 f2bd a0ce d63d
00000020: 6049 70bd fb59 40be 3edb 2dbe 7034 303e
00000030: 9b15 0bbe 1898 aabe 2be3 493d 500c e4bd
00000040: 761b dc3d 4858 70be 2627 ecbd ab8e 8ebb
00000050: 3b72 bdbd 4eb1 81be 60fd 9cbe 802b c5bd
00000060: 10cb 9a3d 4016 fa3c ab50 81be d652 42bd
00000070: eb0d 743e fb11 c93d abb7 0ebe ab4a 59be
00000080: 00e6 79bc d37d 1a3e 6327 48be 02c0 9e3e
00000090: 206a b6bd d88e 9a3e 53b8 083e a611 e93d
000000a0: b868 753e 4efb 613e 933e 05be f65d d1bd
000000b0: 3385 5cbe 5a54 8e3e 932b 14be a3f2 47be
000000c0: 469a cebd 73fb a33e d6b4 51be 308a 0fbe
000000d0: 806e b63d 20d5 9e3e 666c 383e 7699 2dbe
000000e0: 944d 86be 5636 313e d633 283e 365e 413d
000000f0: d3d3 8a3e c616 923d bb25 a4bd f3a4 4a3e
00000100: 0034 19bb e0f2 2e3e 6299 803e 5b00 a93e
00000110: d620 373c ab67 98bc 4675 6cbe 2604 9b3e
00000120: 4322 383e abf1 66bd 36d5 44bd 2eb8 95be
00000130: 8c59 93be dc57 9b3e 0fa2 8c3e 6061 44bd
00000140: 4094 b63d 9b39 a83e 305d 95be 50ca e63d
00000150: 1606 ac3d 2b8b 35bc c62a d73d 4bfd 4dbe
00000160: 6f92 883e ab16 043b cbce 953e d63e 9e3d
00000170: 6b97 83bd 601d b83d 4472 86be cb6f a4be
00000180: 3660 263d cbb6 5abd 6330 4b3e 0891 43be
00000190: a0e7 19be 37a9 843e cbff 7e3d 363e 47be
000001a0: 566b 383c 7099 4abe a029 9cbe f09c ef3d
000001b0: 6b95 e1bd b0e6 563e 528c 81be f633 873d
000001c0: 8623 903e 5620 553e 5e97 903e fe76 5b3e
000001d0: 842a 833e 2b07 9f3e 4072 50be 90f9 d13d
000001e0: b0f4 c3bd e780 93be f002 f9bd 2b2b 2d3e
000001f0: 9781 87be ceae 1abe ae1b 743e 986f 4fbe
00000200: 669e 3a3e f759 8bbe 0004 b03a cb3a 323d
00000210: d393 7abe 5739 823e cb55 9c3d db32 3e3e
00000220: c6c9 74be 6bc2 a8bd c02b 9e3c e0d1 cdbd
00000230: aec2 253e c67f 0f3e 78e2 353e 3002 003e
00000240: 40e6 a33e 18ba 99be dc39 883e 7a79 9d3e
00000250: 5087 2b3e bed4 633e 0653 b73d b010 e93d
00000260: ebe8 eb3d 9f8f 82be 8644 c83d 00b3 4a3e
00000270: e25d 83be d60e 08be e068 93bd 23d9 6a3e
00000280: 6e15 803e 53f8 a2be 983a 2c3e be9a 0bbe
00000290: 762d 973d 632d 38be 0ebd 243e 9b09 d73d
000002a0: 6068 5b3d 30f6 9b3d 7859 373e e018 7cbd
000002b0: 20d9 593d 2ee4 5a3e 6b0c 85bc d63a 893e
000002c0: 3c4d a43e 966a 96bd f779 823e 349e 9f3e
000002d0: 76c0 96bd 8788 933e 1754 a53e 3c74 91be
000002e0: 6893 1f3e 4b74 6d3d ab59 31bc cbce 233d
000002f0: db19 1e3e 5c11 883e 8692 a63d 4618 edbd
00000300: d004 3b3e 0051 873c ab87 683d 60a1 11be
00000310: 38b4 5e3e eb4e 53bd b612 6a3e 4669 8cbe
00000320: 3083 8b3d 2ba3 35bc 1314 69be b094 debd
00000330: 6b6b 793d e69a 9f3e 8389 5b3e a0d0 3d3e
00000340: 2b97 3b3c 8b62 80bd 2324 45be d6e1 933c
00000350: 4bd3 993e 26f5 a1bd 906f e6bd f3dc 043e
00000360: 00ab 90bd 43dd 82be abfd 203e 489a 41be
00000370: 8b19 0e3e 8049 e13c 16d5 0abe b623 18be
00000380: 56fa 91bc 9658 a93e f013 fabd 96dd 7e3e
00000390: 8ba2 943d 50f9 c03d 9609 19bd 74f1 89be
000003a0: 1ba0 e2bd 5694 da3d d61e c43d 2bee e43c
000003b0: ab8f 4e3d a06a 333e 430f 14be 4b99 ebbd
000003c0: 862f 55be 40f9 f23c 3bea d93d eb7e be3d
000003d0: 484a 1e3e a2c8 8abe 2b4b cfbd c3d1 a2be
000003e0: 6b72 8d3c b0f8 80be 8055 cdbd a6df a83e
000003f0: 93df 16be 50e7 56be b6df 41bd a378 5d3e
-0.26218665 0.20791718 0.24166715 -0.28187963 0.27336568 0.27884203 -0.11862433 0.10488629
-0.058663726 -0.18784325 -0.16978166 0.17207503 -0.1358246 -0.33319163 0.04928891 -0.11135161
0.10747425 -0.23471177 -0.115309045 -0.0043505034 -0.09250303 -0.25330585 -0.3066206 -0.096274376
0.07558262 0.030528188 -0.25256857 -0.04744228 0.23833434 0.098178826 -0.13937251 -0.2121989
-0.01525259 0.1508706 -0.19546275 0.31005865 -0.089069605 0.30187106 0.13351564 0.11380319
0.23965728 0.22068521 -0.13012151 -0.10223 -0.21535186 0.2779873 -0.14469747 -0.19526152
-0.10088019 0.32027778 -0.2047914 -0.14017558 0.08907795 0.31021976 0.180101 -0.16953072
-0.26231062 0.17305884 0.16426024 0.047208987 0.27114734 0.0713325 -0.08015009 0.19789486
-0.0023376942 0.17084837 0.25117022 0.33008084 0.011177262 -0.01860412 -0.23091611 0.30276603
0.1798182 -0.056382816 -0.048054896 -0.2924208 -0.28779256 0.3034047 0.2746739 -0.047944427
0.08914995 0.3285645 -0.2917266 0.11269057 0.08399598 -0.0110805435 0.10506205 -0.20116155
0.2667422 0.0020155113 0.29259333 0.07726829 -0.06425365 0.08989978 -0.26259053 -0.3211654
0.040619098 -0.05339698 0.19842677 -0.19098294 -0.15029764 0.2591035 0.062255662 -0.19457325
0.01125606 -0.19785094 -0.30500507 0.11699855 -0.11014827 0.20986438 -0.25302368 0.06601708
0.28152102 0.20813116 0.28240484 0.2143211 0.25618374 0.31060156 -0.20356083 0.102526784
-0.09568155 -0.28809282 -0.121587634 0.16910999 -0.26466057 -0.15105745 0.23838684 -0.20257413
0.18224487 -0.27217075 0.0013428926 0.0435131 -0.24470453 0.25434372 0.07633551 0.18574087
-0.23905095 -0.08240207 0.019307971 -0.10049796 0.16187546 0.14013585 0.17762172 0.12500834
0.32011604 -0.3002479 0.26606643 0.30756742 0.16750836 0.22249123 0.08951382 0.11380136
0.11519035 -0.255002 0.09778695 0.19794846 -0.25657564 -0.1328691 -0.07197738 0.22934394
0.2501635 -0.3183008 0.16819227 -0.13633248 0.07381718 -0.17986064 0.16087744 0.10499879
0.053566337 0.07615316 0.17905223 -0.06154716 0.053185582 0.21376106 -0.016241273 0.268027
0.32090175 -0.073445484 0.25483677 0.31175387 -0.07360928 0.288151 0.32290718 -0.28408992
0.15583575 0.057972234 -0.010824601 0.039992135 0.1543955 0.26575744 0.08133416 -0.115768954
0.18263555 0.016518116 0.056770008 -0.14221716 0.21748435 -0.051588934 0.228587 -0.27424067
0.068121314 -0.011086266 -0.22761564 -0.10868204 0.060893457 0.31172866 0.21439175 0.18536615
0.0114496155 -0.062687956 -0.19252066 0.018052023 0.30044016 -0.079080865 -0.112517476 0.1297491
-0.07063866 -0.25559434 0.15721767 -0.1890651 0.13876931 0.027500868 -0.13557848 -0.14857373
-0.017819565 0.33075398 -0.12210834 0.24889216 0.07257565 0.094225526 -0.037362657 -0.26942027
-0.11065694 0.10672824 0.09576194 0.027945599 0.05042998 0.17521143 -0.14458947 -0.11503848
-0.2081891 0.029659867 0.10640379 0.093015514 0.15458024 -0.27106196 -0.10121759 -0.3180066
0.017266473 -0.25189734 -0.100260735 0.3298313 -0.14733724 -0.20986676 -0.047332488 0.2162805

critic.0.bias f4 [64]
00000000: 561d e4bc d6df 64bc 4822 213e f817 25be
00000010: 68fb 1a3e a623 933d ce52 633e e01b 8f3d
00000020: bb3b dabd 9e00 483e ebe8 863d 6886 45be
00000030: 8372 96be 24fc 913e 0ba6 1f3e 8310 6e3e
00000040: db46 cabd 3317 70be a8df 9b3e b3bc 03be
00000050: fe26 25be 53cd 463e 903f 93bd 8f8f 8e3e
00000060: e203 a4be 3fc8 97be 40b9 71be 1f61 88be
00000070: 0687 9bbe 0837 803e 6ef8 67be 9388 493e
00000080: 7015 dcbd 630d 843e 0b7d ddbd 9bb2 093e
00000090: 131f 713e d0ec 0b3e 208a 5abe 3b29 debd
000000a0: aba7 d13c de2c 62be ab03 21be 20a1 2fbe
000000b0: 83b6 56be d4a5 9bbe 8097 63bd 5655 6eba
000000c0: 98fa 37be 90b7 99bd 36a4 0f3e ab80 00be
000000d0: eb6c 59bd 16ed a5bd ce56 6f3e ab96 45bc
000000e0: 3871 60be 20a8 e3bd cbff 263e c360 083e
000000f0: 56fd 033a 7658 a2bd 9674 a13c b049 a7bd
-0.02784602 -0.013969382 0.15735734 -0.16122425 0.15134966 0.07184534 0.22199556 0.069877386
-0.10655924 0.19531485 0.06587394 -0.19289553 -0.2938424 0.2851268 0.15590684 0.23248486
-0.09876796 -0.2344635 0.30444074 -0.12864952 -0.16128156 0.19414262 -0.07189858 0.27843902
-0.32034212 -0.29644963 -0.23605824 -0.26636598 -0.30376452 0.25041986 -0.22653362 0.19681005
-0.107462764 0.25791463 -0.10814866 0.13447039 0.2354701 0.13664556 -0.21341753 -0.10847708
0.025592646 -0.22087428 -0.15724055 -0.17151308 -0.2096806 -0.30399954 -0.055564404 -0.00090916955
-0.17966688 -0.07505715 0.14027485 -0.12549083 -0.053082388 -0.08101861 0.23372957 -0.012059848
-0.2191819 -0.11116052 0.16308515 0.13318162 0.00050350034 -0.07927029 0.019708913 -0.08168352

critic.2.weight f4 [64, 64]
00000000: d00d ebbd d076 cdbc ac54 a7bd 10c0 7cbd
00000010: e81a e9bc 269a 973d fe2c a83d b4bb ddbd
00000020: 9052 793d 02dd 813d c2dd d7bd a609 f0bd
00000030: eedb cbbd 8c02 363d d87b 9fbd 9404 b8bd
00000040: 10e1 a13c 9479 a43d 0287 90bd f859 af3c
00000050: f050 703c 26c2 d6bd 08b9 883c 7a96 ba3d
00000060: 480a bdbd 9cc3 b93d 327b 85bd 06c1 ebbd
00000070: 6a53 febd 12a6 87bd e0ed 493c 8646 dcbd
00000080: a8eb a23c 0a3c fabd 9aca e43d 7abc 88bd
00000090: 8005 163b d039 19bc 2645 a23d f04d 56bc
000000a0: 2e70 e23d fc10 d2bd 0ae1 afbd bc6a bfbd
000000b0: ccea afbd 827a cdbd d4f6 28bd c2b0 d3bd
000000c0: d45d 61bd e03d 8f3c e870 dcbc 02f5 893d
000000d0: 82a8 cbbd 48cb b8bc 64d0 a5bd b8af a03c
000000e0: 3cb1 74bd b25e b6bd 18f8 cd3d 8845 9dbd
000000f0: 7648 8e3d d40d 6ebd 8881 febc 5aa6 e4bd
00000100: 4019 9bbb 4aa2 f23d 28ca 613d 48ef e8bd
00000110: b40c 873d a8bb a8bd 04f0 d1bd 76da b2bd
00000120: ee65 ad3d c4db c9bd 36dd fb3d 1668 d03d
00000130: fa3c 893d f69b c6bd c084 eb3d 6091 dc3c
00000140: 5276 9bbd 4860 153d 2ac2 94bd e8ee fd3d
00000150: 780e 913d b448 db3d e2d2 edbd 5ce5 b3bd
00000160: 70af fa3c fe48 c8bd 786c 213d cce9 7c3d
00000170: 50b8 e33d 180e 6e3d f83d d8bd fa40 983d
00000180: 14de 8e3d 9409 5bbd f01d dbbc 7e1d fe3d
00000190: f019 45bd caba be3d 20e4 fa3c a88d 453d
000001a0: 0832 2bbd 2c2f 943d 567e 863d e0de efbb
000001b0: 8ae6 d63d 3ad5 9bbd c4bc a8bd 00de f23d
000001c0: 6277 883d 9832 6c3d 4e56 cfbd f6a4 a53d
000001d0: 80d3 7fbc ae2d f43d f469 883d fcd5 38bd
000001e0: d800 bf3d f47d d2bd 503d 873c 18ed a53c
000001f0: 7078 a73d 0009 143d f04a 9dbc 8aea ae3d
00000200: 3623 f63d 1e84 9abd 004a dd39 8a98 b63d
00000210: b023 92bd 18c3 d23c d45e e13d 7074 4f3d
00000220: fcf4 103d f22e edbd f425 b83d 84dc b5bd
00000230: 1c8e 60bd 4826 9e3c 9e80 913d a443 383d
00000240: c0e7 f5bd cac1 a6bd dc55 36bd a263 fdbd
00000250: 6433 07bd 4022 5abd 40ef bfbd 164b cf3d
00000260: a61f 9cbd 8e3e 8c3d f087 813d 3c83 6abd
00000270: c838 973c f478 ecbd 5855 ccbd 4454 55bd
00000280: d0fb 943d 14a0 e33d 7463 253d 3c10 cebd
00000290: 4c34 fe3d a42f 223d 9e80 f8bd 8099 ef3d
000002a0: 2080 a93c f0ac 6dbc f0cd 0dbc 4418 603d
000002b0: c0c1 c43c a011 cc3b 7cb6 853d c04c a6bd
000002c0: de66 c1bd 0849 9cbc 807c 903a 7c0d 663d
000002d0: 50dd f33c ec2a 1a3d eeac a03d 50d7 ecbc
000002e0: 1426 a6bd 5808 bcbd 9cf7 87bd e6cf b0bd
000002f0: 60b2 58bd 2081 0ebc a2bf c63d 7e82 e6bd
00000300: f061 5b3d 7e23 a13d caf3 903d 7ef9 d8bd
00000310: 82b5 df3d 68e1 30bd 0875 783d 1449 09bd
00000320: be01 81bd cc96 a2bd 08fa 81bc b642 ce3d
00000330: bc63 01bd 78a3 383d a009 97bd 08a3 09bd
00000340: b455 173d d82d 353d 38c8 a63d 36f4 e33d
00000350: acf8 46bd c403 2fbd 0089 2d3b e674 e4bd
00000360: 14cd 5cbd 22eb d8bd 3624 8cbd 38fc 9a3d
00000370: 70f7 ec3c 2498 8fbd 7261 f03d 34e4 ef3d
00000380: f0db 093c 8cdc 873d 623f e4bd 20ee 6bbd
00000390: 5607 a0bd d047 22bc 10d5 6d3c 181f 2c3d
000003a0: c482 ebbd d826 cc3c 30a6 e8bd 6488 663d
000003b0: f8c7 0abd c62b b0bd ee2b b33d 309b c13d
000003c0: 7467 f33d 94e6 b4bd 88b1 3cbd ecb5 2bbd
000003d0: d091 a4bc 409d 7b3d 0246 89bd f041 243d
000003e0: fc20 71bd 1eec cd3d da1e ebbd b43c 043d
000003f0: 8c31 bd3d e487 853d 206e a2bc 38a1 9f3d
-0.11477244 -0.025081068 -0.08170447 -0.061706603 -0.028455213 0.07402448 0.082117066 -0.10826817
0.060869753 0.06340982 -0.10540344 -0.1172059 -0.09954058 0.044436023 -0.07787293 -0.08985248
0.019760638 0.08031002 -0.07057001 0.021405205 0.0146677345 -0.104862496 0.016689792 0.091107324
-0.092304766 0.09070513 -0.06517638 -0.11511426 -0.12418254 -0.06623472 0.01232478 -0.10755639
0.01988776 -0.12218483 0.11171456 -0.06676574 0.0022891462 -0.0093521625 0.07923345 -0.013080105
0.11056553 -0.10257146 -0.08587845 -0.0934653 -0.08589706 -0.10033132 -0.04125102 -0.10336448
-0.055021122 0.017485559 -0.026909307 0.06736185 -0.0994425 -0.02255787 -0.08096388 0.01961504
-0.059739336 -0.089047804 0.10057086 -0.07679278 0.069474146 -0.058118656 -0.031067625 -0.111645415
-0.0047332346 0.118473604 0.05512443 -0.11373764 0.0659422 -0.082389176 -0.102508575 -0.08733074
0.08466707 -0.0985637 0.12298052 0.10176103 0.067010835 -0.09697716 0.114999294 0.026924789
-0.07590927 0.036468774 -0.07263596 0.123990834 0.07082838 0.107072264 -0.11612488 -0.08783981
0.030601233 -0.09779547 0.039410084 0.061746404 0.11119139 0.05811891 -0.105586946 0.07434268
0.06975952 -0.05347593 -0.026747674 0.12407969 -0.04812044 0.09312971 0.030626357 0.048230797
-0.04179576 0.0723556 0.065670654 -0.00732027 0.104931906 -0.07609029 -0.08239129 0.118587494
0.066633955 0.057665437 -0.10123883 0.080881044 -0.01561439 0.11922775 0.06660834 -0.045125946
0.09326333 -0.1027793 0.016508728 0.020254657 0.081772685 0.036141396 -0.019200772 0.085408285
0.12018435 -0.075447306 0.0004220754 0.08915813 -0.07135713 0.025727794 0.11004415 0.050648153
0.035389885 -0.1158122 0.08991614 -0.08879951 -0.054823026 0.019305363 0.0710461 0.044986382
-0.120070934 -0.08142431 -0.044515476 -0.12372519 -0.033007994 -0.05325532 -0.09371805 0.101217434
-0.07623224 0.06847869 0.06324756 -0.05725406 0.018459693 -0.115465075 -0.099772155 -0.052082315
0.07274592 0.11114517 0.04037805 -0.1006169 0.124123186 0.039596215 -0.12133907 0.116992
0.020690978 -0.014506564 -0.008655056 0.05471064 0.024018168 0.006227687 0.06528947 -0.08120108
-0.094434485 -0.019077793 0.0011023432 0.056165203 0.029768616 0.03763859 0.07845484 -0.028911263
-0.081127316 -0.09181279 -0.066390246 -0.086334035 -0.052904487 -0.008697778 0.0970452 -0.11255358
0.053560197 0.07868098 0.07077749 -0.10594462 0.10923292 -0.043183714 0.060658485 -0.03351696
-0.062991604 -0.079389185 -0.015866295 0.10071318 -0.031589255 0.04507777 -0.07374883 -0.033602744
0.036946967 0.044233173 0.081436574 0.11130564 -0.048576996 -0.0427282 0.0026479363 -0.11155109
-0.053906515 -0.10591723 -0.06842844 0.07567638 0.028926581 -0.070114404 0.11737336 0.11713448
0.008414254 0.06633863 -0.11144902 -0.05760014 -0.07813899 -0.009904817 0.01451613 0.04202184
-0.11499551 0.024920866 -0.11359823 0.056282416 -0.03388211 -0.08602099 0.08748613 0.09453428
0.118849665 -0.08833042 -0.046067744 -0.04192154 -0.02008906 0.061429262 -0.06702806 0.040101945
-0.058869347 0.100548014 -0.11480494 0.032284454 0.09237966 0.0652006 -0.019827902 0.07794422

critic.2.bias f4 [64]
00000000: e006 f83d 646f 07bd 988e 233d 3061 273c
00000010: 2a99 c1bd 4afc a23d 4c18 6cbd 2648 d8bd
00000020: 18ab ca3d 3415 f4bd 8ab6 fdbd a038 4f3d
00000030: 580d 81bc 864f ef3d daea bcbd 6a2e 9d3d
00000040: 507b 623d b415 7f3d a4f2 7c3d 54b0 db3d
00000050: 92b3 9c3d 407c d93b b007 18bc 8c21 26bd
00000060: e4cc 2dbd 2065 e0bc b484 7c3d 0008 bd3c
00000070: b81a b53c 7aea ed3d 8402 ae3d 50af 0f3d
00000080: e018 9bbb 6e3a 903d 985f 933c 7a22 edbd
00000090: 52d5 f13d 94c8 01bd 30b4 4dbd d859 c2bd
000000a0: 3892 e7bd b07a 193d 306c b0bc 78d1 863c
000000b0: b60a b13d 20d0 92bc 6447 3fbd 1835 063d
000000c0: 1808 64bd ec6f e5bd a8f0 853d 1e8c 81bd
000000d0: 6083 a63d 24c5 493d 2094 ec3c 6c32 483d
000000e0: a065 353d 1ce0 523d 18a5 a53c a019 ef3c
000000f0: cc01 5a3d 5613 97bd 8cc6 9f3d 3c27 8f3d
0.12110686 -0.033065215 0.03993091 0.010216042 -0.09453042 0.079582766 -0.05764036 -0.10560636
0.09895915 -0.11918107 -0.12388332 0.05059111 -0.015753433 0.1168509 -0.09224482 0.076748684
0.05529338 0.062276557 0.061754838 0.10726991 0.07651438 0.006637126 -0.009279177 -0.040559337
-0.042431727 -0.02739197 0.061649993 0.023075104 0.022107467 0.116169885 0.084965736 0.0350793
-0.00473319 0.070423946 0.017989919 -0.115788415 0.11808266 -0.031685427 -0.05022067 -0.094897926
-0.11307186 0.03747052 -0.021535963 0.016457304 0.08644621 -0.017921507 -0.046698943 0.032765478
-0.05567178 -0.11202988 0.06540042 -0.06325553 0.081305265 0.049260274 0.028879225 0.04887621
0.04428637 0.05148326 0.020220324 0.029187024 0.05322437 -0.07376735 0.07801542 0.06989905

critic.4.weight f4 [1, 64]
00000000: bca6 e13d 0640 ed3d b86b 96bd f240 b5bd
00000010: 8023 2f3c 3a55 e13d 28a6 4e3d f8ef 9e3d
00000020: 1895 f7bc 0667 d1bd c0ac dabb 3c7d 943d
00000030: 8275 c83d ceb2 983d 10ec 12bd 58d9 2a3d
00000040: 94d9 fcbd f8f2 ae3c d000 1abd 5403 75bd
00000050: e05b eebc 5e8e b7bd e092 e03c 7c72 3b3d
00000060: 785f 063d dc17 fe3d a2b4 fe3d e4a5 a1bd
00000070: 2886 e2bd b472 78bd 68ce eebc 5cc1 6bbd
00000080: f6d5 b83d 0062 173a 50ed 7abd 900b e8bd
00000090: 60b3 44bd 5877 443d 7697 813d 48dc e53d
000000a0: 1603 dcbd e684 be3d f023 8c3c 6c37 97bd
000000b0: 6422 c83d d86d bbbd b8d0 0ebd 64db 36bd
000000c0: c490 db3d 8035 47bd 1c8a 36bd f6a8 c63d
000000d0: a899 c03d ea46 c6bd 78be 32bd 9c38 24bd
000000e0: 9c6d ec3d 80a5 d2ba 08d1 bcbc c02e 033c
000000f0: 90ea be3c e8e9 cbbc c02c b4bd 9a00 a3bd
0.1101813 0.11584477 -0.073447645 -0.08850278 0.010689616 0.11002584 0.050451428 0.07760614
-0.03022246 -0.10224728 -0.0066734254 0.07250449 0.09788038 0.07455979 -0.035869658 0.04171118
-0.12346187 0.02135609 -0.03759843 -0.059817627 -0.029096544 -0.08962701 0.027413785 0.045763478
0.03280589 0.124068946 0.12436797 -0.07892969 -0.110607445 -0.060656264 -0.029151157 -0.05755745
0.09025185 0.0005774796 -0.061261475 -0.1133033 -0.048022628 0.047965378 0.06327717 0.11223656
-0.10742776 0.09302692 0.01710698 -0.07383618 0.097721845 -0.091518104 -0.03486702 -0.04464282
0.10720971 -0.048635006 -0.044565305 0.097001955 0.094043076 -0.096814945 -0.043638676 -0.04009305
0.11544344 -0.0016071051 -0.023048893 0.008006752 0.023305207 -0.024891809 -0.08797598 -0.07959099
